{"format": "layers-model", "generatedBy": "keras v2.9.0", "convertedBy": "TensorFlow.js Converter v3.18.0", "modelTopology": {"keras_version": "2.9.0", "backend": "tensorflow", "model_config": {"class_name": "Model", "config": {"name": "model", "layers": [{"class_name": "InputLayer", "config": {"batch_input_shape": [null, 3, null, null], "dtype": "float32", "sparse": false, "ragged": false, "name": "input_0"}, "name": "input_0", "inbound_nodes": []}, {"class_name": "ZeroPadding2D", "config": {"name": "649_pad", "trainable": true, "dtype": "float32", "padding": [[1, 1], [1, 1]], "data_format": "channels_first"}, "name": "649_pad", "inbound_nodes": [[["input_0", 0, 0, {}]]]}, {"class_name": "Conv2D", "config": {"name": "649", "trainable": true, "dtype": "float32", "filters": 32, "kernel_size": [3, 3], "strides": [2, 2], "padding": "valid", "data_format": "channels_first", "dilation_rate": [1, 1], "groups": 1, "activation": "linear", "use_bias": true, "kernel_initializer": {"class_name": "Zeros", "config": {}}, "bias_initializer": {"class_name": "Zeros", "config": {}}, "kernel_regularizer": null, "bias_regularizer": null, "activity_regularizer": null, "kernel_constraint": null, "bias_constraint": null}, "name": "649", "inbound_nodes": [[["649_pad", 0, 0, {}]]]}, {"class_name": "Activation", "config": {"name": "363", "trainable": true, "dtype": "float32", "activation": "sigmoid"}, "name": "363", "inbound_nodes": [[["649", 0, 0, {}]]]}, {"class_name": "Multiply", "config": {"name": "364", "trainable": true, "dtype": "float32"}, "name": "364", "inbound_nodes": [[["649", 0, 0, {}], ["363", 0, 0, {}]]]}, {"class_name": "ZeroPadding2D", "config": {"name": "652_pad", "trainable": true, "dtype": "float32", "padding": [[1, 1], [1, 1]], "data_format": "channels_first"}, "name": "652_pad", "inbound_nodes": [[["364", 0, 0, {}]]]}, {"class_name": "DepthwiseConv2D", "config": {"name": "652", "trainable": true, "dtype": "float32", "kernel_size": [3, 3], "strides": [1, 1], "padding": "valid", "data_format": "channels_first", "dilation_rate": [1, 1], "groups": 1, "activation": "linear", "use_bias": true, "bias_initializer": {"class_name": "Zeros", "config": {}}, "bias_regularizer": null, "activity_regularizer": null, "bias_constraint": null, "depth_multiplier": 1, "depthwise_initializer": {"class_name": "GlorotUniform", "config": {"seed": null}}, "depthwise_regularizer": null, "depthwise_constraint": null}, "name": "652", "inbound_nodes": [[["652_pad", 0, 0, {}]]]}, {"class_name": "Activation", "config": {"name": "367", "trainable": true, "dtype": "float32", "activation": "sigmoid"}, "name": "367", "inbound_nodes": [[["652", 0, 0, {}]]]}, {"class_name": "Multiply", "config": {"name": "368", "trainable": true, "dtype": "float32"}, "name": "368", "inbound_nodes": [[["652", 0, 0, {}], ["367", 0, 0, {}]]]}, {"class_name": "GlobalAveragePooling2D", "config": {"name": "369", "trainable": true, "dtype": "float32", "data_format": "channels_first", "keepdims": false}, "name": "369", "inbound_nodes": [[["368", 0, 0, {}]]]}, {"class_name": "Lambda", "config": {"name": "369_EXPAND1", "trainable": true, "dtype": "float32", "function": ["4wEAAAAAAAAAAAAAAAIAAAADAAAAUwAAAHMYAAAAZAFkAmwAbQF9AQEAfAFqAqADfAChAVMAKQNO\n6QAAAAApAdoFa2VyYXMpBNoKdGVuc29yZmxvd3ICAAAA2gdiYWNrZW5k2gtleHBhbmRfZGltcykC\n2gF4cgIAAACpAHIHAAAA+i9DOi9Vc2Vycy9jYXN0cm9mbS9BcHBEYXRhL1JvYW1pbmcvUHl0aG9u\nL1B5dGhvbjM5L3NpdGUtcGFja2FnZXMvb25ueDJrZXJhcy9wb29saW5nX2xheWVycy5wedoMdGFy\nZ2V0X2xheWVymAAAAHMEAAAAAAEMAQ==\n", null, null], "function_type": "lambda", "module": "onnx2keras.pooling_layers", "output_shape": null, "output_shape_type": "raw", "output_shape_module": null, "arguments": {}}, "name": "369_EXPAND1", "inbound_nodes": [[["369", 0, 0, {}]]]}, {"class_name": "Lambda", "config": {"name": "369_EXPAND2", "trainable": true, "dtype": "float32", "function": ["4wEAAAAAAAAAAAAAAAIAAAADAAAAUwAAAHMYAAAAZAFkAmwAbQF9AQEAfAFqAqADfAChAVMAKQNO\n6QAAAAApAdoFa2VyYXMpBNoKdGVuc29yZmxvd3ICAAAA2gdiYWNrZW5k2gtleHBhbmRfZGltcykC\n2gF4cgIAAACpAHIHAAAA+i9DOi9Vc2Vycy9jYXN0cm9mbS9BcHBEYXRhL1JvYW1pbmcvUHl0aG9u\nL1B5dGhvbjM5L3NpdGUtcGFja2FnZXMvb25ueDJrZXJhcy9wb29saW5nX2xheWVycy5wedoMdGFy\nZ2V0X2xheWVymAAAAHMEAAAAAAEMAQ==\n", null, null], "function_type": "lambda", "module": "onnx2keras.pooling_layers", "output_shape": null, "output_shape_type": "raw", "output_shape_module": null, "arguments": {}}, "name": "369_EXPAND2", "inbound_nodes": [[["369_EXPAND1", 0, 0, {}]]]}, {"class_name": "Conv2D", "config": {"name": "370", "trainable": true, "dtype": "float32", "filters": 8, "kernel_size": [1, 1], "strides": [1, 1], "padding": "valid", "data_format": "channels_first", "dilation_rate": [1, 1], "groups": 1, "activation": "linear", "use_bias": true, "kernel_initializer": {"class_name": "Zeros", "config": {}}, "bias_initializer": {"class_name": "Zeros", "config": {}}, "kernel_regularizer": null, "bias_regularizer": null, "activity_regularizer": null, "kernel_constraint": null, "bias_constraint": null}, "name": "370", "inbound_nodes": [[["369_EXPAND2", 0, 0, {}]]]}, {"class_name": "Activation", "config": {"name": "371", "trainable": true, "dtype": "float32", "activation": "sigmoid"}, "name": "371", "inbound_nodes": [[["370", 0, 0, {}]]]}, {"class_name": "Multiply", "config": {"name": "372", "trainable": true, "dtype": "float32"}, "name": "372", "inbound_nodes": [[["370", 0, 0, {}], ["371", 0, 0, {}]]]}, {"class_name": "Conv2D", "config": {"name": "373", "trainable": true, "dtype": "float32", "filters": 32, "kernel_size": [1, 1], "strides": [1, 1], "padding": "valid", "data_format": "channels_first", "dilation_rate": [1, 1], "groups": 1, "activation": "linear", "use_bias": true, "kernel_initializer": {"class_name": "Zeros", "config": {}}, "bias_initializer": {"class_name": "Zeros", "config": {}}, "kernel_regularizer": null, "bias_regularizer": null, "activity_regularizer": null, "kernel_constraint": null, "bias_constraint": null}, "name": "373", "inbound_nodes": [[["372", 0, 0, {}]]]}, {"class_name": "Activation", "config": {"name": "374", "trainable": true, "dtype": "float32", "activation": "sigmoid"}, "name": "374", "inbound_nodes": [[["373", 0, 0, {}]]]}, {"class_name": "Multiply", "config": {"name": "375", "trainable": true, "dtype": "float32"}, "name": "375", "inbound_nodes": [[["374", 0, 0, {}], ["368", 0, 0, {}]]]}, {"class_name": "Conv2D", "config": {"name": "655", "trainable": true, "dtype": "float32", "filters": 16, "kernel_size": [1, 1], "strides": [1, 1], "padding": "valid", "data_format": "channels_first", "dilation_rate": [1, 1], "groups": 1, "activation": "linear", "use_bias": true, "kernel_initializer": {"class_name": "Zeros", "config": {}}, "bias_initializer": {"class_name": "Zeros", "config": {}}, "kernel_regularizer": null, "bias_regularizer": null, "activity_regularizer": null, "kernel_constraint": null, "bias_constraint": null}, "name": "655", "inbound_nodes": [[["375", 0, 0, {}]]]}, {"class_name": "Conv2D", "config": {"name": "658", "trainable": true, "dtype": "float32", "filters": 96, "kernel_size": [1, 1], "strides": [1, 1], "padding": "valid", "data_format": "channels_first", "dilation_rate": [1, 1], "groups": 1, "activation": "linear", "use_bias": true, "kernel_initializer": {"class_name": "Zeros", "config": {}}, "bias_initializer": {"class_name": "Zeros", "config": {}}, "kernel_regularizer": null, "bias_regularizer": null, "activity_regularizer": null, "kernel_constraint": null, "bias_constraint": null}, "name": "658", "inbound_nodes": [[["655", 0, 0, {}]]]}, {"class_name": "Activation", "config": {"name": "380", "trainable": true, "dtype": "float32", "activation": "sigmoid"}, "name": "380", "inbound_nodes": [[["658", 0, 0, {}]]]}, {"class_name": "Multiply", "config": {"name": "381", "trainable": true, "dtype": "float32"}, "name": "381", "inbound_nodes": [[["658", 0, 0, {}], ["380", 0, 0, {}]]]}, {"class_name": "ZeroPadding2D", "config": {"name": "661_pad", "trainable": true, "dtype": "float32", "padding": [[1, 1], [1, 1]], "data_format": "channels_first"}, "name": "661_pad", "inbound_nodes": [[["381", 0, 0, {}]]]}, {"class_name": "DepthwiseConv2D", "config": {"name": "661", "trainable": true, "dtype": "float32", "kernel_size": [3, 3], "strides": [2, 2], "padding": "valid", "data_format": "channels_first", "dilation_rate": [1, 1], "groups": 1, "activation": "linear", "use_bias": true, "bias_initializer": {"class_name": "Zeros", "config": {}}, "bias_regularizer": null, "activity_regularizer": null, "bias_constraint": null, "depth_multiplier": 1, "depthwise_initializer": {"class_name": "GlorotUniform", "config": {"seed": null}}, "depthwise_regularizer": null, "depthwise_constraint": null}, "name": "661", "inbound_nodes": [[["661_pad", 0, 0, {}]]]}, {"class_name": "Activation", "config": {"name": "384", "trainable": true, "dtype": "float32", "activation": "sigmoid"}, "name": "384", "inbound_nodes": [[["661", 0, 0, {}]]]}, {"class_name": "Multiply", "config": {"name": "385", "trainable": true, "dtype": "float32"}, "name": "385", "inbound_nodes": [[["661", 0, 0, {}], ["384", 0, 0, {}]]]}, {"class_name": "GlobalAveragePooling2D", "config": {"name": "386", "trainable": true, "dtype": "float32", "data_format": "channels_first", "keepdims": false}, "name": "386", "inbound_nodes": [[["385", 0, 0, {}]]]}, {"class_name": "Lambda", "config": {"name": "386_EXPAND1", "trainable": true, "dtype": "float32", "function": ["4wEAAAAAAAAAAAAAAAIAAAADAAAAUwAAAHMYAAAAZAFkAmwAbQF9AQEAfAFqAqADfAChAVMAKQNO\n6QAAAAApAdoFa2VyYXMpBNoKdGVuc29yZmxvd3ICAAAA2gdiYWNrZW5k2gtleHBhbmRfZGltcykC\n2gF4cgIAAACpAHIHAAAA+i9DOi9Vc2Vycy9jYXN0cm9mbS9BcHBEYXRhL1JvYW1pbmcvUHl0aG9u\nL1B5dGhvbjM5L3NpdGUtcGFja2FnZXMvb25ueDJrZXJhcy9wb29saW5nX2xheWVycy5wedoMdGFy\nZ2V0X2xheWVymAAAAHMEAAAAAAEMAQ==\n", null, null], "function_type": "lambda", "module": "onnx2keras.pooling_layers", "output_shape": null, "output_shape_type": "raw", "output_shape_module": null, "arguments": {}}, "name": "386_EXPAND1", "inbound_nodes": [[["386", 0, 0, {}]]]}, {"class_name": "Lambda", "config": {"name": "386_EXPAND2", "trainable": true, "dtype": "float32", "function": ["4wEAAAAAAAAAAAAAAAIAAAADAAAAUwAAAHMYAAAAZAFkAmwAbQF9AQEAfAFqAqADfAChAVMAKQNO\n6QAAAAApAdoFa2VyYXMpBNoKdGVuc29yZmxvd3ICAAAA2gdiYWNrZW5k2gtleHBhbmRfZGltcykC\n2gF4cgIAAACpAHIHAAAA+i9DOi9Vc2Vycy9jYXN0cm9mbS9BcHBEYXRhL1JvYW1pbmcvUHl0aG9u\nL1B5dGhvbjM5L3NpdGUtcGFja2FnZXMvb25ueDJrZXJhcy9wb29saW5nX2xheWVycy5wedoMdGFy\nZ2V0X2xheWVymAAAAHMEAAAAAAEMAQ==\n", null, null], "function_type": "lambda", "module": "onnx2keras.pooling_layers", "output_shape": null, "output_shape_type": "raw", "output_shape_module": null, "arguments": {}}, "name": "386_EXPAND2", "inbound_nodes": [[["386_EXPAND1", 0, 0, {}]]]}, {"class_name": "Conv2D", "config": {"name": "387", "trainable": true, "dtype": "float32", "filters": 4, "kernel_size": [1, 1], "strides": [1, 1], "padding": "valid", "data_format": "channels_first", "dilation_rate": [1, 1], "groups": 1, "activation": "linear", "use_bias": true, "kernel_initializer": {"class_name": "Zeros", "config": {}}, "bias_initializer": {"class_name": "Zeros", "config": {}}, "kernel_regularizer": null, "bias_regularizer": null, "activity_regularizer": null, "kernel_constraint": null, "bias_constraint": null}, "name": "387", "inbound_nodes": [[["386_EXPAND2", 0, 0, {}]]]}, {"class_name": "Activation", "config": {"name": "388", "trainable": true, "dtype": "float32", "activation": "sigmoid"}, "name": "388", "inbound_nodes": [[["387", 0, 0, {}]]]}, {"class_name": "Multiply", "config": {"name": "389", "trainable": true, "dtype": "float32"}, "name": "389", "inbound_nodes": [[["387", 0, 0, {}], ["388", 0, 0, {}]]]}, {"class_name": "Conv2D", "config": {"name": "390", "trainable": true, "dtype": "float32", "filters": 96, "kernel_size": [1, 1], "strides": [1, 1], "padding": "valid", "data_format": "channels_first", "dilation_rate": [1, 1], "groups": 1, "activation": "linear", "use_bias": true, "kernel_initializer": {"class_name": "Zeros", "config": {}}, "bias_initializer": {"class_name": "Zeros", "config": {}}, "kernel_regularizer": null, "bias_regularizer": null, "activity_regularizer": null, "kernel_constraint": null, "bias_constraint": null}, "name": "390", "inbound_nodes": [[["389", 0, 0, {}]]]}, {"class_name": "Activation", "config": {"name": "391", "trainable": true, "dtype": "float32", "activation": "sigmoid"}, "name": "391", "inbound_nodes": [[["390", 0, 0, {}]]]}, {"class_name": "Multiply", "config": {"name": "392", "trainable": true, "dtype": "float32"}, "name": "392", "inbound_nodes": [[["391", 0, 0, {}], ["385", 0, 0, {}]]]}, {"class_name": "Conv2D", "config": {"name": "664", "trainable": true, "dtype": "float32", "filters": 24, "kernel_size": [1, 1], "strides": [1, 1], "padding": "valid", "data_format": "channels_first", "dilation_rate": [1, 1], "groups": 1, "activation": "linear", "use_bias": true, "kernel_initializer": {"class_name": "Zeros", "config": {}}, "bias_initializer": {"class_name": "Zeros", "config": {}}, "kernel_regularizer": null, "bias_regularizer": null, "activity_regularizer": null, "kernel_constraint": null, "bias_constraint": null}, "name": "664", "inbound_nodes": [[["392", 0, 0, {}]]]}, {"class_name": "Conv2D", "config": {"name": "667", "trainable": true, "dtype": "float32", "filters": 144, "kernel_size": [1, 1], "strides": [1, 1], "padding": "valid", "data_format": "channels_first", "dilation_rate": [1, 1], "groups": 1, "activation": "linear", "use_bias": true, "kernel_initializer": {"class_name": "Zeros", "config": {}}, "bias_initializer": {"class_name": "Zeros", "config": {}}, "kernel_regularizer": null, "bias_regularizer": null, "activity_regularizer": null, "kernel_constraint": null, "bias_constraint": null}, "name": "667", "inbound_nodes": [[["664", 0, 0, {}]]]}, {"class_name": "Activation", "config": {"name": "397", "trainable": true, "dtype": "float32", "activation": "sigmoid"}, "name": "397", "inbound_nodes": [[["667", 0, 0, {}]]]}, {"class_name": "Multiply", "config": {"name": "398", "trainable": true, "dtype": "float32"}, "name": "398", "inbound_nodes": [[["667", 0, 0, {}], ["397", 0, 0, {}]]]}, {"class_name": "ZeroPadding2D", "config": {"name": "670_pad", "trainable": true, "dtype": "float32", "padding": [[1, 1], [1, 1]], "data_format": "channels_first"}, "name": "670_pad", "inbound_nodes": [[["398", 0, 0, {}]]]}, {"class_name": "DepthwiseConv2D", "config": {"name": "670", "trainable": true, "dtype": "float32", "kernel_size": [3, 3], "strides": [1, 1], "padding": "valid", "data_format": "channels_first", "dilation_rate": [1, 1], "groups": 1, "activation": "linear", "use_bias": true, "bias_initializer": {"class_name": "Zeros", "config": {}}, "bias_regularizer": null, "activity_regularizer": null, "bias_constraint": null, "depth_multiplier": 1, "depthwise_initializer": {"class_name": "GlorotUniform", "config": {"seed": null}}, "depthwise_regularizer": null, "depthwise_constraint": null}, "name": "670", "inbound_nodes": [[["670_pad", 0, 0, {}]]]}, {"class_name": "Activation", "config": {"name": "401", "trainable": true, "dtype": "float32", "activation": "sigmoid"}, "name": "401", "inbound_nodes": [[["670", 0, 0, {}]]]}, {"class_name": "Multiply", "config": {"name": "402", "trainable": true, "dtype": "float32"}, "name": "402", "inbound_nodes": [[["670", 0, 0, {}], ["401", 0, 0, {}]]]}, {"class_name": "GlobalAveragePooling2D", "config": {"name": "403", "trainable": true, "dtype": "float32", "data_format": "channels_first", "keepdims": false}, "name": "403", "inbound_nodes": [[["402", 0, 0, {}]]]}, {"class_name": "Lambda", "config": {"name": "403_EXPAND1", "trainable": true, "dtype": "float32", "function": ["4wEAAAAAAAAAAAAAAAIAAAADAAAAUwAAAHMYAAAAZAFkAmwAbQF9AQEAfAFqAqADfAChAVMAKQNO\n6QAAAAApAdoFa2VyYXMpBNoKdGVuc29yZmxvd3ICAAAA2gdiYWNrZW5k2gtleHBhbmRfZGltcykC\n2gF4cgIAAACpAHIHAAAA+i9DOi9Vc2Vycy9jYXN0cm9mbS9BcHBEYXRhL1JvYW1pbmcvUHl0aG9u\nL1B5dGhvbjM5L3NpdGUtcGFja2FnZXMvb25ueDJrZXJhcy9wb29saW5nX2xheWVycy5wedoMdGFy\nZ2V0X2xheWVymAAAAHMEAAAAAAEMAQ==\n", null, null], "function_type": "lambda", "module": "onnx2keras.pooling_layers", "output_shape": null, "output_shape_type": "raw", "output_shape_module": null, "arguments": {}}, "name": "403_EXPAND1", "inbound_nodes": [[["403", 0, 0, {}]]]}, {"class_name": "Lambda", "config": {"name": "403_EXPAND2", "trainable": true, "dtype": "float32", "function": ["4wEAAAAAAAAAAAAAAAIAAAADAAAAUwAAAHMYAAAAZAFkAmwAbQF9AQEAfAFqAqADfAChAVMAKQNO\n6QAAAAApAdoFa2VyYXMpBNoKdGVuc29yZmxvd3ICAAAA2gdiYWNrZW5k2gtleHBhbmRfZGltcykC\n2gF4cgIAAACpAHIHAAAA+i9DOi9Vc2Vycy9jYXN0cm9mbS9BcHBEYXRhL1JvYW1pbmcvUHl0aG9u\nL1B5dGhvbjM5L3NpdGUtcGFja2FnZXMvb25ueDJrZXJhcy9wb29saW5nX2xheWVycy5wedoMdGFy\nZ2V0X2xheWVymAAAAHMEAAAAAAEMAQ==\n", null, null], "function_type": "lambda", "module": "onnx2keras.pooling_layers", "output_shape": null, "output_shape_type": "raw", "output_shape_module": null, "arguments": {}}, "name": "403_EXPAND2", "inbound_nodes": [[["403_EXPAND1", 0, 0, {}]]]}, {"class_name": "Conv2D", "config": {"name": "404", "trainable": true, "dtype": "float32", "filters": 6, "kernel_size": [1, 1], "strides": [1, 1], "padding": "valid", "data_format": "channels_first", "dilation_rate": [1, 1], "groups": 1, "activation": "linear", "use_bias": true, "kernel_initializer": {"class_name": "Zeros", "config": {}}, "bias_initializer": {"class_name": "Zeros", "config": {}}, "kernel_regularizer": null, "bias_regularizer": null, "activity_regularizer": null, "kernel_constraint": null, "bias_constraint": null}, "name": "404", "inbound_nodes": [[["403_EXPAND2", 0, 0, {}]]]}, {"class_name": "Activation", "config": {"name": "405", "trainable": true, "dtype": "float32", "activation": "sigmoid"}, "name": "405", "inbound_nodes": [[["404", 0, 0, {}]]]}, {"class_name": "Multiply", "config": {"name": "406", "trainable": true, "dtype": "float32"}, "name": "406", "inbound_nodes": [[["404", 0, 0, {}], ["405", 0, 0, {}]]]}, {"class_name": "Conv2D", "config": {"name": "407", "trainable": true, "dtype": "float32", "filters": 144, "kernel_size": [1, 1], "strides": [1, 1], "padding": "valid", "data_format": "channels_first", "dilation_rate": [1, 1], "groups": 1, "activation": "linear", "use_bias": true, "kernel_initializer": {"class_name": "Zeros", "config": {}}, "bias_initializer": {"class_name": "Zeros", "config": {}}, "kernel_regularizer": null, "bias_regularizer": null, "activity_regularizer": null, "kernel_constraint": null, "bias_constraint": null}, "name": "407", "inbound_nodes": [[["406", 0, 0, {}]]]}, {"class_name": "Activation", "config": {"name": "408", "trainable": true, "dtype": "float32", "activation": "sigmoid"}, "name": "408", "inbound_nodes": [[["407", 0, 0, {}]]]}, {"class_name": "Multiply", "config": {"name": "409", "trainable": true, "dtype": "float32"}, "name": "409", "inbound_nodes": [[["408", 0, 0, {}], ["402", 0, 0, {}]]]}, {"class_name": "Conv2D", "config": {"name": "673", "trainable": true, "dtype": "float32", "filters": 24, "kernel_size": [1, 1], "strides": [1, 1], "padding": "valid", "data_format": "channels_first", "dilation_rate": [1, 1], "groups": 1, "activation": "linear", "use_bias": true, "kernel_initializer": {"class_name": "Zeros", "config": {}}, "bias_initializer": {"class_name": "Zeros", "config": {}}, "kernel_regularizer": null, "bias_regularizer": null, "activity_regularizer": null, "kernel_constraint": null, "bias_constraint": null}, "name": "673", "inbound_nodes": [[["409", 0, 0, {}]]]}, {"class_name": "Add", "config": {"name": "412", "trainable": true, "dtype": "float32"}, "name": "412", "inbound_nodes": [[["673", 0, 0, {}], ["664", 0, 0, {}]]]}, {"class_name": "Conv2D", "config": {"name": "676", "trainable": true, "dtype": "float32", "filters": 144, "kernel_size": [1, 1], "strides": [1, 1], "padding": "valid", "data_format": "channels_first", "dilation_rate": [1, 1], "groups": 1, "activation": "linear", "use_bias": true, "kernel_initializer": {"class_name": "Zeros", "config": {}}, "bias_initializer": {"class_name": "Zeros", "config": {}}, "kernel_regularizer": null, "bias_regularizer": null, "activity_regularizer": null, "kernel_constraint": null, "bias_constraint": null}, "name": "676", "inbound_nodes": [[["412", 0, 0, {}]]]}, {"class_name": "Activation", "config": {"name": "415", "trainable": true, "dtype": "float32", "activation": "sigmoid"}, "name": "415", "inbound_nodes": [[["676", 0, 0, {}]]]}, {"class_name": "Multiply", "config": {"name": "416", "trainable": true, "dtype": "float32"}, "name": "416", "inbound_nodes": [[["676", 0, 0, {}], ["415", 0, 0, {}]]]}, {"class_name": "ZeroPadding2D", "config": {"name": "679_pad", "trainable": true, "dtype": "float32", "padding": [[2, 2], [2, 2]], "data_format": "channels_first"}, "name": "679_pad", "inbound_nodes": [[["416", 0, 0, {}]]]}, {"class_name": "DepthwiseConv2D", "config": {"name": "679", "trainable": true, "dtype": "float32", "kernel_size": [5, 5], "strides": [2, 2], "padding": "valid", "data_format": "channels_first", "dilation_rate": [1, 1], "groups": 1, "activation": "linear", "use_bias": true, "bias_initializer": {"class_name": "Zeros", "config": {}}, "bias_regularizer": null, "activity_regularizer": null, "bias_constraint": null, "depth_multiplier": 1, "depthwise_initializer": {"class_name": "GlorotUniform", "config": {"seed": null}}, "depthwise_regularizer": null, "depthwise_constraint": null}, "name": "679", "inbound_nodes": [[["679_pad", 0, 0, {}]]]}, {"class_name": "Activation", "config": {"name": "419", "trainable": true, "dtype": "float32", "activation": "sigmoid"}, "name": "419", "inbound_nodes": [[["679", 0, 0, {}]]]}, {"class_name": "Multiply", "config": {"name": "420", "trainable": true, "dtype": "float32"}, "name": "420", "inbound_nodes": [[["679", 0, 0, {}], ["419", 0, 0, {}]]]}, {"class_name": "GlobalAveragePooling2D", "config": {"name": "421", "trainable": true, "dtype": "float32", "data_format": "channels_first", "keepdims": false}, "name": "421", "inbound_nodes": [[["420", 0, 0, {}]]]}, {"class_name": "Lambda", "config": {"name": "421_EXPAND1", "trainable": true, "dtype": "float32", "function": ["4wEAAAAAAAAAAAAAAAIAAAADAAAAUwAAAHMYAAAAZAFkAmwAbQF9AQEAfAFqAqADfAChAVMAKQNO\n6QAAAAApAdoFa2VyYXMpBNoKdGVuc29yZmxvd3ICAAAA2gdiYWNrZW5k2gtleHBhbmRfZGltcykC\n2gF4cgIAAACpAHIHAAAA+i9DOi9Vc2Vycy9jYXN0cm9mbS9BcHBEYXRhL1JvYW1pbmcvUHl0aG9u\nL1B5dGhvbjM5L3NpdGUtcGFja2FnZXMvb25ueDJrZXJhcy9wb29saW5nX2xheWVycy5wedoMdGFy\nZ2V0X2xheWVymAAAAHMEAAAAAAEMAQ==\n", null, null], "function_type": "lambda", "module": "onnx2keras.pooling_layers", "output_shape": null, "output_shape_type": "raw", "output_shape_module": null, "arguments": {}}, "name": "421_EXPAND1", "inbound_nodes": [[["421", 0, 0, {}]]]}, {"class_name": "Lambda", "config": {"name": "421_EXPAND2", "trainable": true, "dtype": "float32", "function": ["4wEAAAAAAAAAAAAAAAIAAAADAAAAUwAAAHMYAAAAZAFkAmwAbQF9AQEAfAFqAqADfAChAVMAKQNO\n6QAAAAApAdoFa2VyYXMpBNoKdGVuc29yZmxvd3ICAAAA2gdiYWNrZW5k2gtleHBhbmRfZGltcykC\n2gF4cgIAAACpAHIHAAAA+i9DOi9Vc2Vycy9jYXN0cm9mbS9BcHBEYXRhL1JvYW1pbmcvUHl0aG9u\nL1B5dGhvbjM5L3NpdGUtcGFja2FnZXMvb25ueDJrZXJhcy9wb29saW5nX2xheWVycy5wedoMdGFy\nZ2V0X2xheWVymAAAAHMEAAAAAAEMAQ==\n", null, null], "function_type": "lambda", "module": "onnx2keras.pooling_layers", "output_shape": null, "output_shape_type": "raw", "output_shape_module": null, "arguments": {}}, "name": "421_EXPAND2", "inbound_nodes": [[["421_EXPAND1", 0, 0, {}]]]}, {"class_name": "Conv2D", "config": {"name": "422", "trainable": true, "dtype": "float32", "filters": 6, "kernel_size": [1, 1], "strides": [1, 1], "padding": "valid", "data_format": "channels_first", "dilation_rate": [1, 1], "groups": 1, "activation": "linear", "use_bias": true, "kernel_initializer": {"class_name": "Zeros", "config": {}}, "bias_initializer": {"class_name": "Zeros", "config": {}}, "kernel_regularizer": null, "bias_regularizer": null, "activity_regularizer": null, "kernel_constraint": null, "bias_constraint": null}, "name": "422", "inbound_nodes": [[["421_EXPAND2", 0, 0, {}]]]}, {"class_name": "Activation", "config": {"name": "423", "trainable": true, "dtype": "float32", "activation": "sigmoid"}, "name": "423", "inbound_nodes": [[["422", 0, 0, {}]]]}, {"class_name": "Multiply", "config": {"name": "424", "trainable": true, "dtype": "float32"}, "name": "424", "inbound_nodes": [[["422", 0, 0, {}], ["423", 0, 0, {}]]]}, {"class_name": "Conv2D", "config": {"name": "425", "trainable": true, "dtype": "float32", "filters": 144, "kernel_size": [1, 1], "strides": [1, 1], "padding": "valid", "data_format": "channels_first", "dilation_rate": [1, 1], "groups": 1, "activation": "linear", "use_bias": true, "kernel_initializer": {"class_name": "Zeros", "config": {}}, "bias_initializer": {"class_name": "Zeros", "config": {}}, "kernel_regularizer": null, "bias_regularizer": null, "activity_regularizer": null, "kernel_constraint": null, "bias_constraint": null}, "name": "425", "inbound_nodes": [[["424", 0, 0, {}]]]}, {"class_name": "Activation", "config": {"name": "426", "trainable": true, "dtype": "float32", "activation": "sigmoid"}, "name": "426", "inbound_nodes": [[["425", 0, 0, {}]]]}, {"class_name": "Multiply", "config": {"name": "427", "trainable": true, "dtype": "float32"}, "name": "427", "inbound_nodes": [[["426", 0, 0, {}], ["420", 0, 0, {}]]]}, {"class_name": "Conv2D", "config": {"name": "682", "trainable": true, "dtype": "float32", "filters": 40, "kernel_size": [1, 1], "strides": [1, 1], "padding": "valid", "data_format": "channels_first", "dilation_rate": [1, 1], "groups": 1, "activation": "linear", "use_bias": true, "kernel_initializer": {"class_name": "Zeros", "config": {}}, "bias_initializer": {"class_name": "Zeros", "config": {}}, "kernel_regularizer": null, "bias_regularizer": null, "activity_regularizer": null, "kernel_constraint": null, "bias_constraint": null}, "name": "682", "inbound_nodes": [[["427", 0, 0, {}]]]}, {"class_name": "Conv2D", "config": {"name": "685", "trainable": true, "dtype": "float32", "filters": 240, "kernel_size": [1, 1], "strides": [1, 1], "padding": "valid", "data_format": "channels_first", "dilation_rate": [1, 1], "groups": 1, "activation": "linear", "use_bias": true, "kernel_initializer": {"class_name": "Zeros", "config": {}}, "bias_initializer": {"class_name": "Zeros", "config": {}}, "kernel_regularizer": null, "bias_regularizer": null, "activity_regularizer": null, "kernel_constraint": null, "bias_constraint": null}, "name": "685", "inbound_nodes": [[["682", 0, 0, {}]]]}, {"class_name": "Activation", "config": {"name": "432", "trainable": true, "dtype": "float32", "activation": "sigmoid"}, "name": "432", "inbound_nodes": [[["685", 0, 0, {}]]]}, {"class_name": "Multiply", "config": {"name": "433", "trainable": true, "dtype": "float32"}, "name": "433", "inbound_nodes": [[["685", 0, 0, {}], ["432", 0, 0, {}]]]}, {"class_name": "ZeroPadding2D", "config": {"name": "688_pad", "trainable": true, "dtype": "float32", "padding": [[2, 2], [2, 2]], "data_format": "channels_first"}, "name": "688_pad", "inbound_nodes": [[["433", 0, 0, {}]]]}, {"class_name": "DepthwiseConv2D", "config": {"name": "688", "trainable": true, "dtype": "float32", "kernel_size": [5, 5], "strides": [1, 1], "padding": "valid", "data_format": "channels_first", "dilation_rate": [1, 1], "groups": 1, "activation": "linear", "use_bias": true, "bias_initializer": {"class_name": "Zeros", "config": {}}, "bias_regularizer": null, "activity_regularizer": null, "bias_constraint": null, "depth_multiplier": 1, "depthwise_initializer": {"class_name": "GlorotUniform", "config": {"seed": null}}, "depthwise_regularizer": null, "depthwise_constraint": null}, "name": "688", "inbound_nodes": [[["688_pad", 0, 0, {}]]]}, {"class_name": "Activation", "config": {"name": "436", "trainable": true, "dtype": "float32", "activation": "sigmoid"}, "name": "436", "inbound_nodes": [[["688", 0, 0, {}]]]}, {"class_name": "Multiply", "config": {"name": "437", "trainable": true, "dtype": "float32"}, "name": "437", "inbound_nodes": [[["688", 0, 0, {}], ["436", 0, 0, {}]]]}, {"class_name": "GlobalAveragePooling2D", "config": {"name": "438", "trainable": true, "dtype": "float32", "data_format": "channels_first", "keepdims": false}, "name": "438", "inbound_nodes": [[["437", 0, 0, {}]]]}, {"class_name": "Lambda", "config": {"name": "438_EXPAND1", "trainable": true, "dtype": "float32", "function": ["4wEAAAAAAAAAAAAAAAIAAAADAAAAUwAAAHMYAAAAZAFkAmwAbQF9AQEAfAFqAqADfAChAVMAKQNO\n6QAAAAApAdoFa2VyYXMpBNoKdGVuc29yZmxvd3ICAAAA2gdiYWNrZW5k2gtleHBhbmRfZGltcykC\n2gF4cgIAAACpAHIHAAAA+i9DOi9Vc2Vycy9jYXN0cm9mbS9BcHBEYXRhL1JvYW1pbmcvUHl0aG9u\nL1B5dGhvbjM5L3NpdGUtcGFja2FnZXMvb25ueDJrZXJhcy9wb29saW5nX2xheWVycy5wedoMdGFy\nZ2V0X2xheWVymAAAAHMEAAAAAAEMAQ==\n", null, null], "function_type": "lambda", "module": "onnx2keras.pooling_layers", "output_shape": null, "output_shape_type": "raw", "output_shape_module": null, "arguments": {}}, "name": "438_EXPAND1", "inbound_nodes": [[["438", 0, 0, {}]]]}, {"class_name": "Lambda", "config": {"name": "438_EXPAND2", "trainable": true, "dtype": "float32", "function": ["4wEAAAAAAAAAAAAAAAIAAAADAAAAUwAAAHMYAAAAZAFkAmwAbQF9AQEAfAFqAqADfAChAVMAKQNO\n6QAAAAApAdoFa2VyYXMpBNoKdGVuc29yZmxvd3ICAAAA2gdiYWNrZW5k2gtleHBhbmRfZGltcykC\n2gF4cgIAAACpAHIHAAAA+i9DOi9Vc2Vycy9jYXN0cm9mbS9BcHBEYXRhL1JvYW1pbmcvUHl0aG9u\nL1B5dGhvbjM5L3NpdGUtcGFja2FnZXMvb25ueDJrZXJhcy9wb29saW5nX2xheWVycy5wedoMdGFy\nZ2V0X2xheWVymAAAAHMEAAAAAAEMAQ==\n", null, null], "function_type": "lambda", "module": "onnx2keras.pooling_layers", "output_shape": null, "output_shape_type": "raw", "output_shape_module": null, "arguments": {}}, "name": "438_EXPAND2", "inbound_nodes": [[["438_EXPAND1", 0, 0, {}]]]}, {"class_name": "Conv2D", "config": {"name": "439", "trainable": true, "dtype": "float32", "filters": 10, "kernel_size": [1, 1], "strides": [1, 1], "padding": "valid", "data_format": "channels_first", "dilation_rate": [1, 1], "groups": 1, "activation": "linear", "use_bias": true, "kernel_initializer": {"class_name": "Zeros", "config": {}}, "bias_initializer": {"class_name": "Zeros", "config": {}}, "kernel_regularizer": null, "bias_regularizer": null, "activity_regularizer": null, "kernel_constraint": null, "bias_constraint": null}, "name": "439", "inbound_nodes": [[["438_EXPAND2", 0, 0, {}]]]}, {"class_name": "Activation", "config": {"name": "440", "trainable": true, "dtype": "float32", "activation": "sigmoid"}, "name": "440", "inbound_nodes": [[["439", 0, 0, {}]]]}, {"class_name": "Multiply", "config": {"name": "441", "trainable": true, "dtype": "float32"}, "name": "441", "inbound_nodes": [[["439", 0, 0, {}], ["440", 0, 0, {}]]]}, {"class_name": "Conv2D", "config": {"name": "442", "trainable": true, "dtype": "float32", "filters": 240, "kernel_size": [1, 1], "strides": [1, 1], "padding": "valid", "data_format": "channels_first", "dilation_rate": [1, 1], "groups": 1, "activation": "linear", "use_bias": true, "kernel_initializer": {"class_name": "Zeros", "config": {}}, "bias_initializer": {"class_name": "Zeros", "config": {}}, "kernel_regularizer": null, "bias_regularizer": null, "activity_regularizer": null, "kernel_constraint": null, "bias_constraint": null}, "name": "442", "inbound_nodes": [[["441", 0, 0, {}]]]}, {"class_name": "Activation", "config": {"name": "443", "trainable": true, "dtype": "float32", "activation": "sigmoid"}, "name": "443", "inbound_nodes": [[["442", 0, 0, {}]]]}, {"class_name": "Multiply", "config": {"name": "444", "trainable": true, "dtype": "float32"}, "name": "444", "inbound_nodes": [[["443", 0, 0, {}], ["437", 0, 0, {}]]]}, {"class_name": "Conv2D", "config": {"name": "691", "trainable": true, "dtype": "float32", "filters": 40, "kernel_size": [1, 1], "strides": [1, 1], "padding": "valid", "data_format": "channels_first", "dilation_rate": [1, 1], "groups": 1, "activation": "linear", "use_bias": true, "kernel_initializer": {"class_name": "Zeros", "config": {}}, "bias_initializer": {"class_name": "Zeros", "config": {}}, "kernel_regularizer": null, "bias_regularizer": null, "activity_regularizer": null, "kernel_constraint": null, "bias_constraint": null}, "name": "691", "inbound_nodes": [[["444", 0, 0, {}]]]}, {"class_name": "Add", "config": {"name": "447", "trainable": true, "dtype": "float32"}, "name": "447", "inbound_nodes": [[["691", 0, 0, {}], ["682", 0, 0, {}]]]}, {"class_name": "Conv2D", "config": {"name": "694", "trainable": true, "dtype": "float32", "filters": 240, "kernel_size": [1, 1], "strides": [1, 1], "padding": "valid", "data_format": "channels_first", "dilation_rate": [1, 1], "groups": 1, "activation": "linear", "use_bias": true, "kernel_initializer": {"class_name": "Zeros", "config": {}}, "bias_initializer": {"class_name": "Zeros", "config": {}}, "kernel_regularizer": null, "bias_regularizer": null, "activity_regularizer": null, "kernel_constraint": null, "bias_constraint": null}, "name": "694", "inbound_nodes": [[["447", 0, 0, {}]]]}, {"class_name": "Activation", "config": {"name": "450", "trainable": true, "dtype": "float32", "activation": "sigmoid"}, "name": "450", "inbound_nodes": [[["694", 0, 0, {}]]]}, {"class_name": "Multiply", "config": {"name": "451", "trainable": true, "dtype": "float32"}, "name": "451", "inbound_nodes": [[["694", 0, 0, {}], ["450", 0, 0, {}]]]}, {"class_name": "ZeroPadding2D", "config": {"name": "697_pad", "trainable": true, "dtype": "float32", "padding": [[1, 1], [1, 1]], "data_format": "channels_first"}, "name": "697_pad", "inbound_nodes": [[["451", 0, 0, {}]]]}, {"class_name": "DepthwiseConv2D", "config": {"name": "697", "trainable": true, "dtype": "float32", "kernel_size": [3, 3], "strides": [2, 2], "padding": "valid", "data_format": "channels_first", "dilation_rate": [1, 1], "groups": 1, "activation": "linear", "use_bias": true, "bias_initializer": {"class_name": "Zeros", "config": {}}, "bias_regularizer": null, "activity_regularizer": null, "bias_constraint": null, "depth_multiplier": 1, "depthwise_initializer": {"class_name": "GlorotUniform", "config": {"seed": null}}, "depthwise_regularizer": null, "depthwise_constraint": null}, "name": "697", "inbound_nodes": [[["697_pad", 0, 0, {}]]]}, {"class_name": "Activation", "config": {"name": "454", "trainable": true, "dtype": "float32", "activation": "sigmoid"}, "name": "454", "inbound_nodes": [[["697", 0, 0, {}]]]}, {"class_name": "Multiply", "config": {"name": "455", "trainable": true, "dtype": "float32"}, "name": "455", "inbound_nodes": [[["697", 0, 0, {}], ["454", 0, 0, {}]]]}, {"class_name": "GlobalAveragePooling2D", "config": {"name": "456", "trainable": true, "dtype": "float32", "data_format": "channels_first", "keepdims": false}, "name": "456", "inbound_nodes": [[["455", 0, 0, {}]]]}, {"class_name": "Lambda", "config": {"name": "456_EXPAND1", "trainable": true, "dtype": "float32", "function": ["4wEAAAAAAAAAAAAAAAIAAAADAAAAUwAAAHMYAAAAZAFkAmwAbQF9AQEAfAFqAqADfAChAVMAKQNO\n6QAAAAApAdoFa2VyYXMpBNoKdGVuc29yZmxvd3ICAAAA2gdiYWNrZW5k2gtleHBhbmRfZGltcykC\n2gF4cgIAAACpAHIHAAAA+i9DOi9Vc2Vycy9jYXN0cm9mbS9BcHBEYXRhL1JvYW1pbmcvUHl0aG9u\nL1B5dGhvbjM5L3NpdGUtcGFja2FnZXMvb25ueDJrZXJhcy9wb29saW5nX2xheWVycy5wedoMdGFy\nZ2V0X2xheWVymAAAAHMEAAAAAAEMAQ==\n", null, null], "function_type": "lambda", "module": "onnx2keras.pooling_layers", "output_shape": null, "output_shape_type": "raw", "output_shape_module": null, "arguments": {}}, "name": "456_EXPAND1", "inbound_nodes": [[["456", 0, 0, {}]]]}, {"class_name": "Lambda", "config": {"name": "456_EXPAND2", "trainable": true, "dtype": "float32", "function": ["4wEAAAAAAAAAAAAAAAIAAAADAAAAUwAAAHMYAAAAZAFkAmwAbQF9AQEAfAFqAqADfAChAVMAKQNO\n6QAAAAApAdoFa2VyYXMpBNoKdGVuc29yZmxvd3ICAAAA2gdiYWNrZW5k2gtleHBhbmRfZGltcykC\n2gF4cgIAAACpAHIHAAAA+i9DOi9Vc2Vycy9jYXN0cm9mbS9BcHBEYXRhL1JvYW1pbmcvUHl0aG9u\nL1B5dGhvbjM5L3NpdGUtcGFja2FnZXMvb25ueDJrZXJhcy9wb29saW5nX2xheWVycy5wedoMdGFy\nZ2V0X2xheWVymAAAAHMEAAAAAAEMAQ==\n", null, null], "function_type": "lambda", "module": "onnx2keras.pooling_layers", "output_shape": null, "output_shape_type": "raw", "output_shape_module": null, "arguments": {}}, "name": "456_EXPAND2", "inbound_nodes": [[["456_EXPAND1", 0, 0, {}]]]}, {"class_name": "Conv2D", "config": {"name": "457", "trainable": true, "dtype": "float32", "filters": 10, "kernel_size": [1, 1], "strides": [1, 1], "padding": "valid", "data_format": "channels_first", "dilation_rate": [1, 1], "groups": 1, "activation": "linear", "use_bias": true, "kernel_initializer": {"class_name": "Zeros", "config": {}}, "bias_initializer": {"class_name": "Zeros", "config": {}}, "kernel_regularizer": null, "bias_regularizer": null, "activity_regularizer": null, "kernel_constraint": null, "bias_constraint": null}, "name": "457", "inbound_nodes": [[["456_EXPAND2", 0, 0, {}]]]}, {"class_name": "Activation", "config": {"name": "458", "trainable": true, "dtype": "float32", "activation": "sigmoid"}, "name": "458", "inbound_nodes": [[["457", 0, 0, {}]]]}, {"class_name": "Multiply", "config": {"name": "459", "trainable": true, "dtype": "float32"}, "name": "459", "inbound_nodes": [[["457", 0, 0, {}], ["458", 0, 0, {}]]]}, {"class_name": "Conv2D", "config": {"name": "460", "trainable": true, "dtype": "float32", "filters": 240, "kernel_size": [1, 1], "strides": [1, 1], "padding": "valid", "data_format": "channels_first", "dilation_rate": [1, 1], "groups": 1, "activation": "linear", "use_bias": true, "kernel_initializer": {"class_name": "Zeros", "config": {}}, "bias_initializer": {"class_name": "Zeros", "config": {}}, "kernel_regularizer": null, "bias_regularizer": null, "activity_regularizer": null, "kernel_constraint": null, "bias_constraint": null}, "name": "460", "inbound_nodes": [[["459", 0, 0, {}]]]}, {"class_name": "Activation", "config": {"name": "461", "trainable": true, "dtype": "float32", "activation": "sigmoid"}, "name": "461", "inbound_nodes": [[["460", 0, 0, {}]]]}, {"class_name": "Multiply", "config": {"name": "462", "trainable": true, "dtype": "float32"}, "name": "462", "inbound_nodes": [[["461", 0, 0, {}], ["455", 0, 0, {}]]]}, {"class_name": "Conv2D", "config": {"name": "700", "trainable": true, "dtype": "float32", "filters": 80, "kernel_size": [1, 1], "strides": [1, 1], "padding": "valid", "data_format": "channels_first", "dilation_rate": [1, 1], "groups": 1, "activation": "linear", "use_bias": true, "kernel_initializer": {"class_name": "Zeros", "config": {}}, "bias_initializer": {"class_name": "Zeros", "config": {}}, "kernel_regularizer": null, "bias_regularizer": null, "activity_regularizer": null, "kernel_constraint": null, "bias_constraint": null}, "name": "700", "inbound_nodes": [[["462", 0, 0, {}]]]}, {"class_name": "Conv2D", "config": {"name": "703", "trainable": true, "dtype": "float32", "filters": 480, "kernel_size": [1, 1], "strides": [1, 1], "padding": "valid", "data_format": "channels_first", "dilation_rate": [1, 1], "groups": 1, "activation": "linear", "use_bias": true, "kernel_initializer": {"class_name": "Zeros", "config": {}}, "bias_initializer": {"class_name": "Zeros", "config": {}}, "kernel_regularizer": null, "bias_regularizer": null, "activity_regularizer": null, "kernel_constraint": null, "bias_constraint": null}, "name": "703", "inbound_nodes": [[["700", 0, 0, {}]]]}, {"class_name": "Activation", "config": {"name": "467", "trainable": true, "dtype": "float32", "activation": "sigmoid"}, "name": "467", "inbound_nodes": [[["703", 0, 0, {}]]]}, {"class_name": "Multiply", "config": {"name": "468", "trainable": true, "dtype": "float32"}, "name": "468", "inbound_nodes": [[["703", 0, 0, {}], ["467", 0, 0, {}]]]}, {"class_name": "ZeroPadding2D", "config": {"name": "706_pad", "trainable": true, "dtype": "float32", "padding": [[1, 1], [1, 1]], "data_format": "channels_first"}, "name": "706_pad", "inbound_nodes": [[["468", 0, 0, {}]]]}, {"class_name": "DepthwiseConv2D", "config": {"name": "706", "trainable": true, "dtype": "float32", "kernel_size": [3, 3], "strides": [1, 1], "padding": "valid", "data_format": "channels_first", "dilation_rate": [1, 1], "groups": 1, "activation": "linear", "use_bias": true, "bias_initializer": {"class_name": "Zeros", "config": {}}, "bias_regularizer": null, "activity_regularizer": null, "bias_constraint": null, "depth_multiplier": 1, "depthwise_initializer": {"class_name": "GlorotUniform", "config": {"seed": null}}, "depthwise_regularizer": null, "depthwise_constraint": null}, "name": "706", "inbound_nodes": [[["706_pad", 0, 0, {}]]]}, {"class_name": "Activation", "config": {"name": "471", "trainable": true, "dtype": "float32", "activation": "sigmoid"}, "name": "471", "inbound_nodes": [[["706", 0, 0, {}]]]}, {"class_name": "Multiply", "config": {"name": "472", "trainable": true, "dtype": "float32"}, "name": "472", "inbound_nodes": [[["706", 0, 0, {}], ["471", 0, 0, {}]]]}, {"class_name": "GlobalAveragePooling2D", "config": {"name": "473", "trainable": true, "dtype": "float32", "data_format": "channels_first", "keepdims": false}, "name": "473", "inbound_nodes": [[["472", 0, 0, {}]]]}, {"class_name": "Lambda", "config": {"name": "473_EXPAND1", "trainable": true, "dtype": "float32", "function": ["4wEAAAAAAAAAAAAAAAIAAAADAAAAUwAAAHMYAAAAZAFkAmwAbQF9AQEAfAFqAqADfAChAVMAKQNO\n6QAAAAApAdoFa2VyYXMpBNoKdGVuc29yZmxvd3ICAAAA2gdiYWNrZW5k2gtleHBhbmRfZGltcykC\n2gF4cgIAAACpAHIHAAAA+i9DOi9Vc2Vycy9jYXN0cm9mbS9BcHBEYXRhL1JvYW1pbmcvUHl0aG9u\nL1B5dGhvbjM5L3NpdGUtcGFja2FnZXMvb25ueDJrZXJhcy9wb29saW5nX2xheWVycy5wedoMdGFy\nZ2V0X2xheWVymAAAAHMEAAAAAAEMAQ==\n", null, null], "function_type": "lambda", "module": "onnx2keras.pooling_layers", "output_shape": null, "output_shape_type": "raw", "output_shape_module": null, "arguments": {}}, "name": "473_EXPAND1", "inbound_nodes": [[["473", 0, 0, {}]]]}, {"class_name": "Lambda", "config": {"name": "473_EXPAND2", "trainable": true, "dtype": "float32", "function": ["4wEAAAAAAAAAAAAAAAIAAAADAAAAUwAAAHMYAAAAZAFkAmwAbQF9AQEAfAFqAqADfAChAVMAKQNO\n6QAAAAApAdoFa2VyYXMpBNoKdGVuc29yZmxvd3ICAAAA2gdiYWNrZW5k2gtleHBhbmRfZGltcykC\n2gF4cgIAAACpAHIHAAAA+i9DOi9Vc2Vycy9jYXN0cm9mbS9BcHBEYXRhL1JvYW1pbmcvUHl0aG9u\nL1B5dGhvbjM5L3NpdGUtcGFja2FnZXMvb25ueDJrZXJhcy9wb29saW5nX2xheWVycy5wedoMdGFy\nZ2V0X2xheWVymAAAAHMEAAAAAAEMAQ==\n", null, null], "function_type": "lambda", "module": "onnx2keras.pooling_layers", "output_shape": null, "output_shape_type": "raw", "output_shape_module": null, "arguments": {}}, "name": "473_EXPAND2", "inbound_nodes": [[["473_EXPAND1", 0, 0, {}]]]}, {"class_name": "Conv2D", "config": {"name": "474", "trainable": true, "dtype": "float32", "filters": 20, "kernel_size": [1, 1], "strides": [1, 1], "padding": "valid", "data_format": "channels_first", "dilation_rate": [1, 1], "groups": 1, "activation": "linear", "use_bias": true, "kernel_initializer": {"class_name": "Zeros", "config": {}}, "bias_initializer": {"class_name": "Zeros", "config": {}}, "kernel_regularizer": null, "bias_regularizer": null, "activity_regularizer": null, "kernel_constraint": null, "bias_constraint": null}, "name": "474", "inbound_nodes": [[["473_EXPAND2", 0, 0, {}]]]}, {"class_name": "Activation", "config": {"name": "475", "trainable": true, "dtype": "float32", "activation": "sigmoid"}, "name": "475", "inbound_nodes": [[["474", 0, 0, {}]]]}, {"class_name": "Multiply", "config": {"name": "476", "trainable": true, "dtype": "float32"}, "name": "476", "inbound_nodes": [[["474", 0, 0, {}], ["475", 0, 0, {}]]]}, {"class_name": "Conv2D", "config": {"name": "477", "trainable": true, "dtype": "float32", "filters": 480, "kernel_size": [1, 1], "strides": [1, 1], "padding": "valid", "data_format": "channels_first", "dilation_rate": [1, 1], "groups": 1, "activation": "linear", "use_bias": true, "kernel_initializer": {"class_name": "Zeros", "config": {}}, "bias_initializer": {"class_name": "Zeros", "config": {}}, "kernel_regularizer": null, "bias_regularizer": null, "activity_regularizer": null, "kernel_constraint": null, "bias_constraint": null}, "name": "477", "inbound_nodes": [[["476", 0, 0, {}]]]}, {"class_name": "Activation", "config": {"name": "478", "trainable": true, "dtype": "float32", "activation": "sigmoid"}, "name": "478", "inbound_nodes": [[["477", 0, 0, {}]]]}, {"class_name": "Multiply", "config": {"name": "479", "trainable": true, "dtype": "float32"}, "name": "479", "inbound_nodes": [[["478", 0, 0, {}], ["472", 0, 0, {}]]]}, {"class_name": "Conv2D", "config": {"name": "709", "trainable": true, "dtype": "float32", "filters": 80, "kernel_size": [1, 1], "strides": [1, 1], "padding": "valid", "data_format": "channels_first", "dilation_rate": [1, 1], "groups": 1, "activation": "linear", "use_bias": true, "kernel_initializer": {"class_name": "Zeros", "config": {}}, "bias_initializer": {"class_name": "Zeros", "config": {}}, "kernel_regularizer": null, "bias_regularizer": null, "activity_regularizer": null, "kernel_constraint": null, "bias_constraint": null}, "name": "709", "inbound_nodes": [[["479", 0, 0, {}]]]}, {"class_name": "Add", "config": {"name": "482", "trainable": true, "dtype": "float32"}, "name": "482", "inbound_nodes": [[["709", 0, 0, {}], ["700", 0, 0, {}]]]}, {"class_name": "Conv2D", "config": {"name": "712", "trainable": true, "dtype": "float32", "filters": 480, "kernel_size": [1, 1], "strides": [1, 1], "padding": "valid", "data_format": "channels_first", "dilation_rate": [1, 1], "groups": 1, "activation": "linear", "use_bias": true, "kernel_initializer": {"class_name": "Zeros", "config": {}}, "bias_initializer": {"class_name": "Zeros", "config": {}}, "kernel_regularizer": null, "bias_regularizer": null, "activity_regularizer": null, "kernel_constraint": null, "bias_constraint": null}, "name": "712", "inbound_nodes": [[["482", 0, 0, {}]]]}, {"class_name": "Activation", "config": {"name": "485", "trainable": true, "dtype": "float32", "activation": "sigmoid"}, "name": "485", "inbound_nodes": [[["712", 0, 0, {}]]]}, {"class_name": "Multiply", "config": {"name": "486", "trainable": true, "dtype": "float32"}, "name": "486", "inbound_nodes": [[["712", 0, 0, {}], ["485", 0, 0, {}]]]}, {"class_name": "ZeroPadding2D", "config": {"name": "715_pad", "trainable": true, "dtype": "float32", "padding": [[1, 1], [1, 1]], "data_format": "channels_first"}, "name": "715_pad", "inbound_nodes": [[["486", 0, 0, {}]]]}, {"class_name": "DepthwiseConv2D", "config": {"name": "715", "trainable": true, "dtype": "float32", "kernel_size": [3, 3], "strides": [1, 1], "padding": "valid", "data_format": "channels_first", "dilation_rate": [1, 1], "groups": 1, "activation": "linear", "use_bias": true, "bias_initializer": {"class_name": "Zeros", "config": {}}, "bias_regularizer": null, "activity_regularizer": null, "bias_constraint": null, "depth_multiplier": 1, "depthwise_initializer": {"class_name": "GlorotUniform", "config": {"seed": null}}, "depthwise_regularizer": null, "depthwise_constraint": null}, "name": "715", "inbound_nodes": [[["715_pad", 0, 0, {}]]]}, {"class_name": "Activation", "config": {"name": "489", "trainable": true, "dtype": "float32", "activation": "sigmoid"}, "name": "489", "inbound_nodes": [[["715", 0, 0, {}]]]}, {"class_name": "Multiply", "config": {"name": "490", "trainable": true, "dtype": "float32"}, "name": "490", "inbound_nodes": [[["715", 0, 0, {}], ["489", 0, 0, {}]]]}, {"class_name": "GlobalAveragePooling2D", "config": {"name": "491", "trainable": true, "dtype": "float32", "data_format": "channels_first", "keepdims": false}, "name": "491", "inbound_nodes": [[["490", 0, 0, {}]]]}, {"class_name": "Lambda", "config": {"name": "491_EXPAND1", "trainable": true, "dtype": "float32", "function": ["4wEAAAAAAAAAAAAAAAIAAAADAAAAUwAAAHMYAAAAZAFkAmwAbQF9AQEAfAFqAqADfAChAVMAKQNO\n6QAAAAApAdoFa2VyYXMpBNoKdGVuc29yZmxvd3ICAAAA2gdiYWNrZW5k2gtleHBhbmRfZGltcykC\n2gF4cgIAAACpAHIHAAAA+i9DOi9Vc2Vycy9jYXN0cm9mbS9BcHBEYXRhL1JvYW1pbmcvUHl0aG9u\nL1B5dGhvbjM5L3NpdGUtcGFja2FnZXMvb25ueDJrZXJhcy9wb29saW5nX2xheWVycy5wedoMdGFy\nZ2V0X2xheWVymAAAAHMEAAAAAAEMAQ==\n", null, null], "function_type": "lambda", "module": "onnx2keras.pooling_layers", "output_shape": null, "output_shape_type": "raw", "output_shape_module": null, "arguments": {}}, "name": "491_EXPAND1", "inbound_nodes": [[["491", 0, 0, {}]]]}, {"class_name": "Lambda", "config": {"name": "491_EXPAND2", "trainable": true, "dtype": "float32", "function": ["4wEAAAAAAAAAAAAAAAIAAAADAAAAUwAAAHMYAAAAZAFkAmwAbQF9AQEAfAFqAqADfAChAVMAKQNO\n6QAAAAApAdoFa2VyYXMpBNoKdGVuc29yZmxvd3ICAAAA2gdiYWNrZW5k2gtleHBhbmRfZGltcykC\n2gF4cgIAAACpAHIHAAAA+i9DOi9Vc2Vycy9jYXN0cm9mbS9BcHBEYXRhL1JvYW1pbmcvUHl0aG9u\nL1B5dGhvbjM5L3NpdGUtcGFja2FnZXMvb25ueDJrZXJhcy9wb29saW5nX2xheWVycy5wedoMdGFy\nZ2V0X2xheWVymAAAAHMEAAAAAAEMAQ==\n", null, null], "function_type": "lambda", "module": "onnx2keras.pooling_layers", "output_shape": null, "output_shape_type": "raw", "output_shape_module": null, "arguments": {}}, "name": "491_EXPAND2", "inbound_nodes": [[["491_EXPAND1", 0, 0, {}]]]}, {"class_name": "Conv2D", "config": {"name": "492", "trainable": true, "dtype": "float32", "filters": 20, "kernel_size": [1, 1], "strides": [1, 1], "padding": "valid", "data_format": "channels_first", "dilation_rate": [1, 1], "groups": 1, "activation": "linear", "use_bias": true, "kernel_initializer": {"class_name": "Zeros", "config": {}}, "bias_initializer": {"class_name": "Zeros", "config": {}}, "kernel_regularizer": null, "bias_regularizer": null, "activity_regularizer": null, "kernel_constraint": null, "bias_constraint": null}, "name": "492", "inbound_nodes": [[["491_EXPAND2", 0, 0, {}]]]}, {"class_name": "Activation", "config": {"name": "493", "trainable": true, "dtype": "float32", "activation": "sigmoid"}, "name": "493", "inbound_nodes": [[["492", 0, 0, {}]]]}, {"class_name": "Multiply", "config": {"name": "494", "trainable": true, "dtype": "float32"}, "name": "494", "inbound_nodes": [[["492", 0, 0, {}], ["493", 0, 0, {}]]]}, {"class_name": "Conv2D", "config": {"name": "495", "trainable": true, "dtype": "float32", "filters": 480, "kernel_size": [1, 1], "strides": [1, 1], "padding": "valid", "data_format": "channels_first", "dilation_rate": [1, 1], "groups": 1, "activation": "linear", "use_bias": true, "kernel_initializer": {"class_name": "Zeros", "config": {}}, "bias_initializer": {"class_name": "Zeros", "config": {}}, "kernel_regularizer": null, "bias_regularizer": null, "activity_regularizer": null, "kernel_constraint": null, "bias_constraint": null}, "name": "495", "inbound_nodes": [[["494", 0, 0, {}]]]}, {"class_name": "Activation", "config": {"name": "496", "trainable": true, "dtype": "float32", "activation": "sigmoid"}, "name": "496", "inbound_nodes": [[["495", 0, 0, {}]]]}, {"class_name": "Multiply", "config": {"name": "497", "trainable": true, "dtype": "float32"}, "name": "497", "inbound_nodes": [[["496", 0, 0, {}], ["490", 0, 0, {}]]]}, {"class_name": "Conv2D", "config": {"name": "718", "trainable": true, "dtype": "float32", "filters": 80, "kernel_size": [1, 1], "strides": [1, 1], "padding": "valid", "data_format": "channels_first", "dilation_rate": [1, 1], "groups": 1, "activation": "linear", "use_bias": true, "kernel_initializer": {"class_name": "Zeros", "config": {}}, "bias_initializer": {"class_name": "Zeros", "config": {}}, "kernel_regularizer": null, "bias_regularizer": null, "activity_regularizer": null, "kernel_constraint": null, "bias_constraint": null}, "name": "718", "inbound_nodes": [[["497", 0, 0, {}]]]}, {"class_name": "Add", "config": {"name": "500", "trainable": true, "dtype": "float32"}, "name": "500", "inbound_nodes": [[["718", 0, 0, {}], ["482", 0, 0, {}]]]}, {"class_name": "Conv2D", "config": {"name": "721", "trainable": true, "dtype": "float32", "filters": 480, "kernel_size": [1, 1], "strides": [1, 1], "padding": "valid", "data_format": "channels_first", "dilation_rate": [1, 1], "groups": 1, "activation": "linear", "use_bias": true, "kernel_initializer": {"class_name": "Zeros", "config": {}}, "bias_initializer": {"class_name": "Zeros", "config": {}}, "kernel_regularizer": null, "bias_regularizer": null, "activity_regularizer": null, "kernel_constraint": null, "bias_constraint": null}, "name": "721", "inbound_nodes": [[["500", 0, 0, {}]]]}, {"class_name": "Activation", "config": {"name": "503", "trainable": true, "dtype": "float32", "activation": "sigmoid"}, "name": "503", "inbound_nodes": [[["721", 0, 0, {}]]]}, {"class_name": "Multiply", "config": {"name": "504", "trainable": true, "dtype": "float32"}, "name": "504", "inbound_nodes": [[["721", 0, 0, {}], ["503", 0, 0, {}]]]}, {"class_name": "ZeroPadding2D", "config": {"name": "724_pad", "trainable": true, "dtype": "float32", "padding": [[2, 2], [2, 2]], "data_format": "channels_first"}, "name": "724_pad", "inbound_nodes": [[["504", 0, 0, {}]]]}, {"class_name": "DepthwiseConv2D", "config": {"name": "724", "trainable": true, "dtype": "float32", "kernel_size": [5, 5], "strides": [1, 1], "padding": "valid", "data_format": "channels_first", "dilation_rate": [1, 1], "groups": 1, "activation": "linear", "use_bias": true, "bias_initializer": {"class_name": "Zeros", "config": {}}, "bias_regularizer": null, "activity_regularizer": null, "bias_constraint": null, "depth_multiplier": 1, "depthwise_initializer": {"class_name": "GlorotUniform", "config": {"seed": null}}, "depthwise_regularizer": null, "depthwise_constraint": null}, "name": "724", "inbound_nodes": [[["724_pad", 0, 0, {}]]]}, {"class_name": "Activation", "config": {"name": "507", "trainable": true, "dtype": "float32", "activation": "sigmoid"}, "name": "507", "inbound_nodes": [[["724", 0, 0, {}]]]}, {"class_name": "Multiply", "config": {"name": "508", "trainable": true, "dtype": "float32"}, "name": "508", "inbound_nodes": [[["724", 0, 0, {}], ["507", 0, 0, {}]]]}, {"class_name": "GlobalAveragePooling2D", "config": {"name": "509", "trainable": true, "dtype": "float32", "data_format": "channels_first", "keepdims": false}, "name": "509", "inbound_nodes": [[["508", 0, 0, {}]]]}, {"class_name": "Lambda", "config": {"name": "509_EXPAND1", "trainable": true, "dtype": "float32", "function": ["4wEAAAAAAAAAAAAAAAIAAAADAAAAUwAAAHMYAAAAZAFkAmwAbQF9AQEAfAFqAqADfAChAVMAKQNO\n6QAAAAApAdoFa2VyYXMpBNoKdGVuc29yZmxvd3ICAAAA2gdiYWNrZW5k2gtleHBhbmRfZGltcykC\n2gF4cgIAAACpAHIHAAAA+i9DOi9Vc2Vycy9jYXN0cm9mbS9BcHBEYXRhL1JvYW1pbmcvUHl0aG9u\nL1B5dGhvbjM5L3NpdGUtcGFja2FnZXMvb25ueDJrZXJhcy9wb29saW5nX2xheWVycy5wedoMdGFy\nZ2V0X2xheWVymAAAAHMEAAAAAAEMAQ==\n", null, null], "function_type": "lambda", "module": "onnx2keras.pooling_layers", "output_shape": null, "output_shape_type": "raw", "output_shape_module": null, "arguments": {}}, "name": "509_EXPAND1", "inbound_nodes": [[["509", 0, 0, {}]]]}, {"class_name": "Lambda", "config": {"name": "509_EXPAND2", "trainable": true, "dtype": "float32", "function": ["4wEAAAAAAAAAAAAAAAIAAAADAAAAUwAAAHMYAAAAZAFkAmwAbQF9AQEAfAFqAqADfAChAVMAKQNO\n6QAAAAApAdoFa2VyYXMpBNoKdGVuc29yZmxvd3ICAAAA2gdiYWNrZW5k2gtleHBhbmRfZGltcykC\n2gF4cgIAAACpAHIHAAAA+i9DOi9Vc2Vycy9jYXN0cm9mbS9BcHBEYXRhL1JvYW1pbmcvUHl0aG9u\nL1B5dGhvbjM5L3NpdGUtcGFja2FnZXMvb25ueDJrZXJhcy9wb29saW5nX2xheWVycy5wedoMdGFy\nZ2V0X2xheWVymAAAAHMEAAAAAAEMAQ==\n", null, null], "function_type": "lambda", "module": "onnx2keras.pooling_layers", "output_shape": null, "output_shape_type": "raw", "output_shape_module": null, "arguments": {}}, "name": "509_EXPAND2", "inbound_nodes": [[["509_EXPAND1", 0, 0, {}]]]}, {"class_name": "Conv2D", "config": {"name": "510", "trainable": true, "dtype": "float32", "filters": 20, "kernel_size": [1, 1], "strides": [1, 1], "padding": "valid", "data_format": "channels_first", "dilation_rate": [1, 1], "groups": 1, "activation": "linear", "use_bias": true, "kernel_initializer": {"class_name": "Zeros", "config": {}}, "bias_initializer": {"class_name": "Zeros", "config": {}}, "kernel_regularizer": null, "bias_regularizer": null, "activity_regularizer": null, "kernel_constraint": null, "bias_constraint": null}, "name": "510", "inbound_nodes": [[["509_EXPAND2", 0, 0, {}]]]}, {"class_name": "Activation", "config": {"name": "511", "trainable": true, "dtype": "float32", "activation": "sigmoid"}, "name": "511", "inbound_nodes": [[["510", 0, 0, {}]]]}, {"class_name": "Multiply", "config": {"name": "512", "trainable": true, "dtype": "float32"}, "name": "512", "inbound_nodes": [[["510", 0, 0, {}], ["511", 0, 0, {}]]]}, {"class_name": "Conv2D", "config": {"name": "513", "trainable": true, "dtype": "float32", "filters": 480, "kernel_size": [1, 1], "strides": [1, 1], "padding": "valid", "data_format": "channels_first", "dilation_rate": [1, 1], "groups": 1, "activation": "linear", "use_bias": true, "kernel_initializer": {"class_name": "Zeros", "config": {}}, "bias_initializer": {"class_name": "Zeros", "config": {}}, "kernel_regularizer": null, "bias_regularizer": null, "activity_regularizer": null, "kernel_constraint": null, "bias_constraint": null}, "name": "513", "inbound_nodes": [[["512", 0, 0, {}]]]}, {"class_name": "Activation", "config": {"name": "514", "trainable": true, "dtype": "float32", "activation": "sigmoid"}, "name": "514", "inbound_nodes": [[["513", 0, 0, {}]]]}, {"class_name": "Multiply", "config": {"name": "515", "trainable": true, "dtype": "float32"}, "name": "515", "inbound_nodes": [[["514", 0, 0, {}], ["508", 0, 0, {}]]]}, {"class_name": "Conv2D", "config": {"name": "727", "trainable": true, "dtype": "float32", "filters": 112, "kernel_size": [1, 1], "strides": [1, 1], "padding": "valid", "data_format": "channels_first", "dilation_rate": [1, 1], "groups": 1, "activation": "linear", "use_bias": true, "kernel_initializer": {"class_name": "Zeros", "config": {}}, "bias_initializer": {"class_name": "Zeros", "config": {}}, "kernel_regularizer": null, "bias_regularizer": null, "activity_regularizer": null, "kernel_constraint": null, "bias_constraint": null}, "name": "727", "inbound_nodes": [[["515", 0, 0, {}]]]}, {"class_name": "Conv2D", "config": {"name": "730", "trainable": true, "dtype": "float32", "filters": 672, "kernel_size": [1, 1], "strides": [1, 1], "padding": "valid", "data_format": "channels_first", "dilation_rate": [1, 1], "groups": 1, "activation": "linear", "use_bias": true, "kernel_initializer": {"class_name": "Zeros", "config": {}}, "bias_initializer": {"class_name": "Zeros", "config": {}}, "kernel_regularizer": null, "bias_regularizer": null, "activity_regularizer": null, "kernel_constraint": null, "bias_constraint": null}, "name": "730", "inbound_nodes": [[["727", 0, 0, {}]]]}, {"class_name": "Activation", "config": {"name": "520", "trainable": true, "dtype": "float32", "activation": "sigmoid"}, "name": "520", "inbound_nodes": [[["730", 0, 0, {}]]]}, {"class_name": "Multiply", "config": {"name": "521", "trainable": true, "dtype": "float32"}, "name": "521", "inbound_nodes": [[["730", 0, 0, {}], ["520", 0, 0, {}]]]}, {"class_name": "ZeroPadding2D", "config": {"name": "733_pad", "trainable": true, "dtype": "float32", "padding": [[2, 2], [2, 2]], "data_format": "channels_first"}, "name": "733_pad", "inbound_nodes": [[["521", 0, 0, {}]]]}, {"class_name": "DepthwiseConv2D", "config": {"name": "733", "trainable": true, "dtype": "float32", "kernel_size": [5, 5], "strides": [1, 1], "padding": "valid", "data_format": "channels_first", "dilation_rate": [1, 1], "groups": 1, "activation": "linear", "use_bias": true, "bias_initializer": {"class_name": "Zeros", "config": {}}, "bias_regularizer": null, "activity_regularizer": null, "bias_constraint": null, "depth_multiplier": 1, "depthwise_initializer": {"class_name": "GlorotUniform", "config": {"seed": null}}, "depthwise_regularizer": null, "depthwise_constraint": null}, "name": "733", "inbound_nodes": [[["733_pad", 0, 0, {}]]]}, {"class_name": "Activation", "config": {"name": "524", "trainable": true, "dtype": "float32", "activation": "sigmoid"}, "name": "524", "inbound_nodes": [[["733", 0, 0, {}]]]}, {"class_name": "Multiply", "config": {"name": "525", "trainable": true, "dtype": "float32"}, "name": "525", "inbound_nodes": [[["733", 0, 0, {}], ["524", 0, 0, {}]]]}, {"class_name": "GlobalAveragePooling2D", "config": {"name": "526", "trainable": true, "dtype": "float32", "data_format": "channels_first", "keepdims": false}, "name": "526", "inbound_nodes": [[["525", 0, 0, {}]]]}, {"class_name": "Lambda", "config": {"name": "526_EXPAND1", "trainable": true, "dtype": "float32", "function": ["4wEAAAAAAAAAAAAAAAIAAAADAAAAUwAAAHMYAAAAZAFkAmwAbQF9AQEAfAFqAqADfAChAVMAKQNO\n6QAAAAApAdoFa2VyYXMpBNoKdGVuc29yZmxvd3ICAAAA2gdiYWNrZW5k2gtleHBhbmRfZGltcykC\n2gF4cgIAAACpAHIHAAAA+i9DOi9Vc2Vycy9jYXN0cm9mbS9BcHBEYXRhL1JvYW1pbmcvUHl0aG9u\nL1B5dGhvbjM5L3NpdGUtcGFja2FnZXMvb25ueDJrZXJhcy9wb29saW5nX2xheWVycy5wedoMdGFy\nZ2V0X2xheWVymAAAAHMEAAAAAAEMAQ==\n", null, null], "function_type": "lambda", "module": "onnx2keras.pooling_layers", "output_shape": null, "output_shape_type": "raw", "output_shape_module": null, "arguments": {}}, "name": "526_EXPAND1", "inbound_nodes": [[["526", 0, 0, {}]]]}, {"class_name": "Lambda", "config": {"name": "526_EXPAND2", "trainable": true, "dtype": "float32", "function": ["4wEAAAAAAAAAAAAAAAIAAAADAAAAUwAAAHMYAAAAZAFkAmwAbQF9AQEAfAFqAqADfAChAVMAKQNO\n6QAAAAApAdoFa2VyYXMpBNoKdGVuc29yZmxvd3ICAAAA2gdiYWNrZW5k2gtleHBhbmRfZGltcykC\n2gF4cgIAAACpAHIHAAAA+i9DOi9Vc2Vycy9jYXN0cm9mbS9BcHBEYXRhL1JvYW1pbmcvUHl0aG9u\nL1B5dGhvbjM5L3NpdGUtcGFja2FnZXMvb25ueDJrZXJhcy9wb29saW5nX2xheWVycy5wedoMdGFy\nZ2V0X2xheWVymAAAAHMEAAAAAAEMAQ==\n", null, null], "function_type": "lambda", "module": "onnx2keras.pooling_layers", "output_shape": null, "output_shape_type": "raw", "output_shape_module": null, "arguments": {}}, "name": "526_EXPAND2", "inbound_nodes": [[["526_EXPAND1", 0, 0, {}]]]}, {"class_name": "Conv2D", "config": {"name": "527", "trainable": true, "dtype": "float32", "filters": 28, "kernel_size": [1, 1], "strides": [1, 1], "padding": "valid", "data_format": "channels_first", "dilation_rate": [1, 1], "groups": 1, "activation": "linear", "use_bias": true, "kernel_initializer": {"class_name": "Zeros", "config": {}}, "bias_initializer": {"class_name": "Zeros", "config": {}}, "kernel_regularizer": null, "bias_regularizer": null, "activity_regularizer": null, "kernel_constraint": null, "bias_constraint": null}, "name": "527", "inbound_nodes": [[["526_EXPAND2", 0, 0, {}]]]}, {"class_name": "Activation", "config": {"name": "528", "trainable": true, "dtype": "float32", "activation": "sigmoid"}, "name": "528", "inbound_nodes": [[["527", 0, 0, {}]]]}, {"class_name": "Multiply", "config": {"name": "529", "trainable": true, "dtype": "float32"}, "name": "529", "inbound_nodes": [[["527", 0, 0, {}], ["528", 0, 0, {}]]]}, {"class_name": "Conv2D", "config": {"name": "530", "trainable": true, "dtype": "float32", "filters": 672, "kernel_size": [1, 1], "strides": [1, 1], "padding": "valid", "data_format": "channels_first", "dilation_rate": [1, 1], "groups": 1, "activation": "linear", "use_bias": true, "kernel_initializer": {"class_name": "Zeros", "config": {}}, "bias_initializer": {"class_name": "Zeros", "config": {}}, "kernel_regularizer": null, "bias_regularizer": null, "activity_regularizer": null, "kernel_constraint": null, "bias_constraint": null}, "name": "530", "inbound_nodes": [[["529", 0, 0, {}]]]}, {"class_name": "Activation", "config": {"name": "531", "trainable": true, "dtype": "float32", "activation": "sigmoid"}, "name": "531", "inbound_nodes": [[["530", 0, 0, {}]]]}, {"class_name": "Multiply", "config": {"name": "532", "trainable": true, "dtype": "float32"}, "name": "532", "inbound_nodes": [[["531", 0, 0, {}], ["525", 0, 0, {}]]]}, {"class_name": "Conv2D", "config": {"name": "736", "trainable": true, "dtype": "float32", "filters": 112, "kernel_size": [1, 1], "strides": [1, 1], "padding": "valid", "data_format": "channels_first", "dilation_rate": [1, 1], "groups": 1, "activation": "linear", "use_bias": true, "kernel_initializer": {"class_name": "Zeros", "config": {}}, "bias_initializer": {"class_name": "Zeros", "config": {}}, "kernel_regularizer": null, "bias_regularizer": null, "activity_regularizer": null, "kernel_constraint": null, "bias_constraint": null}, "name": "736", "inbound_nodes": [[["532", 0, 0, {}]]]}, {"class_name": "Add", "config": {"name": "535", "trainable": true, "dtype": "float32"}, "name": "535", "inbound_nodes": [[["736", 0, 0, {}], ["727", 0, 0, {}]]]}, {"class_name": "Conv2D", "config": {"name": "739", "trainable": true, "dtype": "float32", "filters": 672, "kernel_size": [1, 1], "strides": [1, 1], "padding": "valid", "data_format": "channels_first", "dilation_rate": [1, 1], "groups": 1, "activation": "linear", "use_bias": true, "kernel_initializer": {"class_name": "Zeros", "config": {}}, "bias_initializer": {"class_name": "Zeros", "config": {}}, "kernel_regularizer": null, "bias_regularizer": null, "activity_regularizer": null, "kernel_constraint": null, "bias_constraint": null}, "name": "739", "inbound_nodes": [[["535", 0, 0, {}]]]}, {"class_name": "Activation", "config": {"name": "538", "trainable": true, "dtype": "float32", "activation": "sigmoid"}, "name": "538", "inbound_nodes": [[["739", 0, 0, {}]]]}, {"class_name": "Multiply", "config": {"name": "539", "trainable": true, "dtype": "float32"}, "name": "539", "inbound_nodes": [[["739", 0, 0, {}], ["538", 0, 0, {}]]]}, {"class_name": "ZeroPadding2D", "config": {"name": "742_pad", "trainable": true, "dtype": "float32", "padding": [[2, 2], [2, 2]], "data_format": "channels_first"}, "name": "742_pad", "inbound_nodes": [[["539", 0, 0, {}]]]}, {"class_name": "DepthwiseConv2D", "config": {"name": "742", "trainable": true, "dtype": "float32", "kernel_size": [5, 5], "strides": [1, 1], "padding": "valid", "data_format": "channels_first", "dilation_rate": [1, 1], "groups": 1, "activation": "linear", "use_bias": true, "bias_initializer": {"class_name": "Zeros", "config": {}}, "bias_regularizer": null, "activity_regularizer": null, "bias_constraint": null, "depth_multiplier": 1, "depthwise_initializer": {"class_name": "GlorotUniform", "config": {"seed": null}}, "depthwise_regularizer": null, "depthwise_constraint": null}, "name": "742", "inbound_nodes": [[["742_pad", 0, 0, {}]]]}, {"class_name": "Activation", "config": {"name": "542", "trainable": true, "dtype": "float32", "activation": "sigmoid"}, "name": "542", "inbound_nodes": [[["742", 0, 0, {}]]]}, {"class_name": "Multiply", "config": {"name": "543", "trainable": true, "dtype": "float32"}, "name": "543", "inbound_nodes": [[["742", 0, 0, {}], ["542", 0, 0, {}]]]}, {"class_name": "GlobalAveragePooling2D", "config": {"name": "544", "trainable": true, "dtype": "float32", "data_format": "channels_first", "keepdims": false}, "name": "544", "inbound_nodes": [[["543", 0, 0, {}]]]}, {"class_name": "Lambda", "config": {"name": "544_EXPAND1", "trainable": true, "dtype": "float32", "function": ["4wEAAAAAAAAAAAAAAAIAAAADAAAAUwAAAHMYAAAAZAFkAmwAbQF9AQEAfAFqAqADfAChAVMAKQNO\n6QAAAAApAdoFa2VyYXMpBNoKdGVuc29yZmxvd3ICAAAA2gdiYWNrZW5k2gtleHBhbmRfZGltcykC\n2gF4cgIAAACpAHIHAAAA+i9DOi9Vc2Vycy9jYXN0cm9mbS9BcHBEYXRhL1JvYW1pbmcvUHl0aG9u\nL1B5dGhvbjM5L3NpdGUtcGFja2FnZXMvb25ueDJrZXJhcy9wb29saW5nX2xheWVycy5wedoMdGFy\nZ2V0X2xheWVymAAAAHMEAAAAAAEMAQ==\n", null, null], "function_type": "lambda", "module": "onnx2keras.pooling_layers", "output_shape": null, "output_shape_type": "raw", "output_shape_module": null, "arguments": {}}, "name": "544_EXPAND1", "inbound_nodes": [[["544", 0, 0, {}]]]}, {"class_name": "Lambda", "config": {"name": "544_EXPAND2", "trainable": true, "dtype": "float32", "function": ["4wEAAAAAAAAAAAAAAAIAAAADAAAAUwAAAHMYAAAAZAFkAmwAbQF9AQEAfAFqAqADfAChAVMAKQNO\n6QAAAAApAdoFa2VyYXMpBNoKdGVuc29yZmxvd3ICAAAA2gdiYWNrZW5k2gtleHBhbmRfZGltcykC\n2gF4cgIAAACpAHIHAAAA+i9DOi9Vc2Vycy9jYXN0cm9mbS9BcHBEYXRhL1JvYW1pbmcvUHl0aG9u\nL1B5dGhvbjM5L3NpdGUtcGFja2FnZXMvb25ueDJrZXJhcy9wb29saW5nX2xheWVycy5wedoMdGFy\nZ2V0X2xheWVymAAAAHMEAAAAAAEMAQ==\n", null, null], "function_type": "lambda", "module": "onnx2keras.pooling_layers", "output_shape": null, "output_shape_type": "raw", "output_shape_module": null, "arguments": {}}, "name": "544_EXPAND2", "inbound_nodes": [[["544_EXPAND1", 0, 0, {}]]]}, {"class_name": "Conv2D", "config": {"name": "545", "trainable": true, "dtype": "float32", "filters": 28, "kernel_size": [1, 1], "strides": [1, 1], "padding": "valid", "data_format": "channels_first", "dilation_rate": [1, 1], "groups": 1, "activation": "linear", "use_bias": true, "kernel_initializer": {"class_name": "Zeros", "config": {}}, "bias_initializer": {"class_name": "Zeros", "config": {}}, "kernel_regularizer": null, "bias_regularizer": null, "activity_regularizer": null, "kernel_constraint": null, "bias_constraint": null}, "name": "545", "inbound_nodes": [[["544_EXPAND2", 0, 0, {}]]]}, {"class_name": "Activation", "config": {"name": "546", "trainable": true, "dtype": "float32", "activation": "sigmoid"}, "name": "546", "inbound_nodes": [[["545", 0, 0, {}]]]}, {"class_name": "Multiply", "config": {"name": "547", "trainable": true, "dtype": "float32"}, "name": "547", "inbound_nodes": [[["545", 0, 0, {}], ["546", 0, 0, {}]]]}, {"class_name": "Conv2D", "config": {"name": "548", "trainable": true, "dtype": "float32", "filters": 672, "kernel_size": [1, 1], "strides": [1, 1], "padding": "valid", "data_format": "channels_first", "dilation_rate": [1, 1], "groups": 1, "activation": "linear", "use_bias": true, "kernel_initializer": {"class_name": "Zeros", "config": {}}, "bias_initializer": {"class_name": "Zeros", "config": {}}, "kernel_regularizer": null, "bias_regularizer": null, "activity_regularizer": null, "kernel_constraint": null, "bias_constraint": null}, "name": "548", "inbound_nodes": [[["547", 0, 0, {}]]]}, {"class_name": "Activation", "config": {"name": "549", "trainable": true, "dtype": "float32", "activation": "sigmoid"}, "name": "549", "inbound_nodes": [[["548", 0, 0, {}]]]}, {"class_name": "Multiply", "config": {"name": "550", "trainable": true, "dtype": "float32"}, "name": "550", "inbound_nodes": [[["549", 0, 0, {}], ["543", 0, 0, {}]]]}, {"class_name": "Conv2D", "config": {"name": "745", "trainable": true, "dtype": "float32", "filters": 112, "kernel_size": [1, 1], "strides": [1, 1], "padding": "valid", "data_format": "channels_first", "dilation_rate": [1, 1], "groups": 1, "activation": "linear", "use_bias": true, "kernel_initializer": {"class_name": "Zeros", "config": {}}, "bias_initializer": {"class_name": "Zeros", "config": {}}, "kernel_regularizer": null, "bias_regularizer": null, "activity_regularizer": null, "kernel_constraint": null, "bias_constraint": null}, "name": "745", "inbound_nodes": [[["550", 0, 0, {}]]]}, {"class_name": "Add", "config": {"name": "553", "trainable": true, "dtype": "float32"}, "name": "553", "inbound_nodes": [[["745", 0, 0, {}], ["535", 0, 0, {}]]]}, {"class_name": "Conv2D", "config": {"name": "748", "trainable": true, "dtype": "float32", "filters": 672, "kernel_size": [1, 1], "strides": [1, 1], "padding": "valid", "data_format": "channels_first", "dilation_rate": [1, 1], "groups": 1, "activation": "linear", "use_bias": true, "kernel_initializer": {"class_name": "Zeros", "config": {}}, "bias_initializer": {"class_name": "Zeros", "config": {}}, "kernel_regularizer": null, "bias_regularizer": null, "activity_regularizer": null, "kernel_constraint": null, "bias_constraint": null}, "name": "748", "inbound_nodes": [[["553", 0, 0, {}]]]}, {"class_name": "Activation", "config": {"name": "556", "trainable": true, "dtype": "float32", "activation": "sigmoid"}, "name": "556", "inbound_nodes": [[["748", 0, 0, {}]]]}, {"class_name": "Multiply", "config": {"name": "557", "trainable": true, "dtype": "float32"}, "name": "557", "inbound_nodes": [[["748", 0, 0, {}], ["556", 0, 0, {}]]]}, {"class_name": "ZeroPadding2D", "config": {"name": "751_pad", "trainable": true, "dtype": "float32", "padding": [[2, 2], [2, 2]], "data_format": "channels_first"}, "name": "751_pad", "inbound_nodes": [[["557", 0, 0, {}]]]}, {"class_name": "DepthwiseConv2D", "config": {"name": "751", "trainable": true, "dtype": "float32", "kernel_size": [5, 5], "strides": [2, 2], "padding": "valid", "data_format": "channels_first", "dilation_rate": [1, 1], "groups": 1, "activation": "linear", "use_bias": true, "bias_initializer": {"class_name": "Zeros", "config": {}}, "bias_regularizer": null, "activity_regularizer": null, "bias_constraint": null, "depth_multiplier": 1, "depthwise_initializer": {"class_name": "GlorotUniform", "config": {"seed": null}}, "depthwise_regularizer": null, "depthwise_constraint": null}, "name": "751", "inbound_nodes": [[["751_pad", 0, 0, {}]]]}, {"class_name": "Activation", "config": {"name": "560", "trainable": true, "dtype": "float32", "activation": "sigmoid"}, "name": "560", "inbound_nodes": [[["751", 0, 0, {}]]]}, {"class_name": "Multiply", "config": {"name": "561", "trainable": true, "dtype": "float32"}, "name": "561", "inbound_nodes": [[["751", 0, 0, {}], ["560", 0, 0, {}]]]}, {"class_name": "GlobalAveragePooling2D", "config": {"name": "562", "trainable": true, "dtype": "float32", "data_format": "channels_first", "keepdims": false}, "name": "562", "inbound_nodes": [[["561", 0, 0, {}]]]}, {"class_name": "Lambda", "config": {"name": "562_EXPAND1", "trainable": true, "dtype": "float32", "function": ["4wEAAAAAAAAAAAAAAAIAAAADAAAAUwAAAHMYAAAAZAFkAmwAbQF9AQEAfAFqAqADfAChAVMAKQNO\n6QAAAAApAdoFa2VyYXMpBNoKdGVuc29yZmxvd3ICAAAA2gdiYWNrZW5k2gtleHBhbmRfZGltcykC\n2gF4cgIAAACpAHIHAAAA+i9DOi9Vc2Vycy9jYXN0cm9mbS9BcHBEYXRhL1JvYW1pbmcvUHl0aG9u\nL1B5dGhvbjM5L3NpdGUtcGFja2FnZXMvb25ueDJrZXJhcy9wb29saW5nX2xheWVycy5wedoMdGFy\nZ2V0X2xheWVymAAAAHMEAAAAAAEMAQ==\n", null, null], "function_type": "lambda", "module": "onnx2keras.pooling_layers", "output_shape": null, "output_shape_type": "raw", "output_shape_module": null, "arguments": {}}, "name": "562_EXPAND1", "inbound_nodes": [[["562", 0, 0, {}]]]}, {"class_name": "Lambda", "config": {"name": "562_EXPAND2", "trainable": true, "dtype": "float32", "function": ["4wEAAAAAAAAAAAAAAAIAAAADAAAAUwAAAHMYAAAAZAFkAmwAbQF9AQEAfAFqAqADfAChAVMAKQNO\n6QAAAAApAdoFa2VyYXMpBNoKdGVuc29yZmxvd3ICAAAA2gdiYWNrZW5k2gtleHBhbmRfZGltcykC\n2gF4cgIAAACpAHIHAAAA+i9DOi9Vc2Vycy9jYXN0cm9mbS9BcHBEYXRhL1JvYW1pbmcvUHl0aG9u\nL1B5dGhvbjM5L3NpdGUtcGFja2FnZXMvb25ueDJrZXJhcy9wb29saW5nX2xheWVycy5wedoMdGFy\nZ2V0X2xheWVymAAAAHMEAAAAAAEMAQ==\n", null, null], "function_type": "lambda", "module": "onnx2keras.pooling_layers", "output_shape": null, "output_shape_type": "raw", "output_shape_module": null, "arguments": {}}, "name": "562_EXPAND2", "inbound_nodes": [[["562_EXPAND1", 0, 0, {}]]]}, {"class_name": "Conv2D", "config": {"name": "563", "trainable": true, "dtype": "float32", "filters": 28, "kernel_size": [1, 1], "strides": [1, 1], "padding": "valid", "data_format": "channels_first", "dilation_rate": [1, 1], "groups": 1, "activation": "linear", "use_bias": true, "kernel_initializer": {"class_name": "Zeros", "config": {}}, "bias_initializer": {"class_name": "Zeros", "config": {}}, "kernel_regularizer": null, "bias_regularizer": null, "activity_regularizer": null, "kernel_constraint": null, "bias_constraint": null}, "name": "563", "inbound_nodes": [[["562_EXPAND2", 0, 0, {}]]]}, {"class_name": "Activation", "config": {"name": "564", "trainable": true, "dtype": "float32", "activation": "sigmoid"}, "name": "564", "inbound_nodes": [[["563", 0, 0, {}]]]}, {"class_name": "Multiply", "config": {"name": "565", "trainable": true, "dtype": "float32"}, "name": "565", "inbound_nodes": [[["563", 0, 0, {}], ["564", 0, 0, {}]]]}, {"class_name": "Conv2D", "config": {"name": "566", "trainable": true, "dtype": "float32", "filters": 672, "kernel_size": [1, 1], "strides": [1, 1], "padding": "valid", "data_format": "channels_first", "dilation_rate": [1, 1], "groups": 1, "activation": "linear", "use_bias": true, "kernel_initializer": {"class_name": "Zeros", "config": {}}, "bias_initializer": {"class_name": "Zeros", "config": {}}, "kernel_regularizer": null, "bias_regularizer": null, "activity_regularizer": null, "kernel_constraint": null, "bias_constraint": null}, "name": "566", "inbound_nodes": [[["565", 0, 0, {}]]]}, {"class_name": "Activation", "config": {"name": "567", "trainable": true, "dtype": "float32", "activation": "sigmoid"}, "name": "567", "inbound_nodes": [[["566", 0, 0, {}]]]}, {"class_name": "Multiply", "config": {"name": "568", "trainable": true, "dtype": "float32"}, "name": "568", "inbound_nodes": [[["567", 0, 0, {}], ["561", 0, 0, {}]]]}, {"class_name": "Conv2D", "config": {"name": "754", "trainable": true, "dtype": "float32", "filters": 192, "kernel_size": [1, 1], "strides": [1, 1], "padding": "valid", "data_format": "channels_first", "dilation_rate": [1, 1], "groups": 1, "activation": "linear", "use_bias": true, "kernel_initializer": {"class_name": "Zeros", "config": {}}, "bias_initializer": {"class_name": "Zeros", "config": {}}, "kernel_regularizer": null, "bias_regularizer": null, "activity_regularizer": null, "kernel_constraint": null, "bias_constraint": null}, "name": "754", "inbound_nodes": [[["568", 0, 0, {}]]]}, {"class_name": "Conv2D", "config": {"name": "757", "trainable": true, "dtype": "float32", "filters": 1152, "kernel_size": [1, 1], "strides": [1, 1], "padding": "valid", "data_format": "channels_first", "dilation_rate": [1, 1], "groups": 1, "activation": "linear", "use_bias": true, "kernel_initializer": {"class_name": "Zeros", "config": {}}, "bias_initializer": {"class_name": "Zeros", "config": {}}, "kernel_regularizer": null, "bias_regularizer": null, "activity_regularizer": null, "kernel_constraint": null, "bias_constraint": null}, "name": "757", "inbound_nodes": [[["754", 0, 0, {}]]]}, {"class_name": "Activation", "config": {"name": "573", "trainable": true, "dtype": "float32", "activation": "sigmoid"}, "name": "573", "inbound_nodes": [[["757", 0, 0, {}]]]}, {"class_name": "Multiply", "config": {"name": "574", "trainable": true, "dtype": "float32"}, "name": "574", "inbound_nodes": [[["757", 0, 0, {}], ["573", 0, 0, {}]]]}, {"class_name": "ZeroPadding2D", "config": {"name": "760_pad", "trainable": true, "dtype": "float32", "padding": [[2, 2], [2, 2]], "data_format": "channels_first"}, "name": "760_pad", "inbound_nodes": [[["574", 0, 0, {}]]]}, {"class_name": "DepthwiseConv2D", "config": {"name": "760", "trainable": true, "dtype": "float32", "kernel_size": [5, 5], "strides": [1, 1], "padding": "valid", "data_format": "channels_first", "dilation_rate": [1, 1], "groups": 1, "activation": "linear", "use_bias": true, "bias_initializer": {"class_name": "Zeros", "config": {}}, "bias_regularizer": null, "activity_regularizer": null, "bias_constraint": null, "depth_multiplier": 1, "depthwise_initializer": {"class_name": "GlorotUniform", "config": {"seed": null}}, "depthwise_regularizer": null, "depthwise_constraint": null}, "name": "760", "inbound_nodes": [[["760_pad", 0, 0, {}]]]}, {"class_name": "Activation", "config": {"name": "577", "trainable": true, "dtype": "float32", "activation": "sigmoid"}, "name": "577", "inbound_nodes": [[["760", 0, 0, {}]]]}, {"class_name": "Multiply", "config": {"name": "578", "trainable": true, "dtype": "float32"}, "name": "578", "inbound_nodes": [[["760", 0, 0, {}], ["577", 0, 0, {}]]]}, {"class_name": "GlobalAveragePooling2D", "config": {"name": "579", "trainable": true, "dtype": "float32", "data_format": "channels_first", "keepdims": false}, "name": "579", "inbound_nodes": [[["578", 0, 0, {}]]]}, {"class_name": "Lambda", "config": {"name": "579_EXPAND1", "trainable": true, "dtype": "float32", "function": ["4wEAAAAAAAAAAAAAAAIAAAADAAAAUwAAAHMYAAAAZAFkAmwAbQF9AQEAfAFqAqADfAChAVMAKQNO\n6QAAAAApAdoFa2VyYXMpBNoKdGVuc29yZmxvd3ICAAAA2gdiYWNrZW5k2gtleHBhbmRfZGltcykC\n2gF4cgIAAACpAHIHAAAA+i9DOi9Vc2Vycy9jYXN0cm9mbS9BcHBEYXRhL1JvYW1pbmcvUHl0aG9u\nL1B5dGhvbjM5L3NpdGUtcGFja2FnZXMvb25ueDJrZXJhcy9wb29saW5nX2xheWVycy5wedoMdGFy\nZ2V0X2xheWVymAAAAHMEAAAAAAEMAQ==\n", null, null], "function_type": "lambda", "module": "onnx2keras.pooling_layers", "output_shape": null, "output_shape_type": "raw", "output_shape_module": null, "arguments": {}}, "name": "579_EXPAND1", "inbound_nodes": [[["579", 0, 0, {}]]]}, {"class_name": "Lambda", "config": {"name": "579_EXPAND2", "trainable": true, "dtype": "float32", "function": ["4wEAAAAAAAAAAAAAAAIAAAADAAAAUwAAAHMYAAAAZAFkAmwAbQF9AQEAfAFqAqADfAChAVMAKQNO\n6QAAAAApAdoFa2VyYXMpBNoKdGVuc29yZmxvd3ICAAAA2gdiYWNrZW5k2gtleHBhbmRfZGltcykC\n2gF4cgIAAACpAHIHAAAA+i9DOi9Vc2Vycy9jYXN0cm9mbS9BcHBEYXRhL1JvYW1pbmcvUHl0aG9u\nL1B5dGhvbjM5L3NpdGUtcGFja2FnZXMvb25ueDJrZXJhcy9wb29saW5nX2xheWVycy5wedoMdGFy\nZ2V0X2xheWVymAAAAHMEAAAAAAEMAQ==\n", null, null], "function_type": "lambda", "module": "onnx2keras.pooling_layers", "output_shape": null, "output_shape_type": "raw", "output_shape_module": null, "arguments": {}}, "name": "579_EXPAND2", "inbound_nodes": [[["579_EXPAND1", 0, 0, {}]]]}, {"class_name": "Conv2D", "config": {"name": "580", "trainable": true, "dtype": "float32", "filters": 48, "kernel_size": [1, 1], "strides": [1, 1], "padding": "valid", "data_format": "channels_first", "dilation_rate": [1, 1], "groups": 1, "activation": "linear", "use_bias": true, "kernel_initializer": {"class_name": "Zeros", "config": {}}, "bias_initializer": {"class_name": "Zeros", "config": {}}, "kernel_regularizer": null, "bias_regularizer": null, "activity_regularizer": null, "kernel_constraint": null, "bias_constraint": null}, "name": "580", "inbound_nodes": [[["579_EXPAND2", 0, 0, {}]]]}, {"class_name": "Activation", "config": {"name": "581", "trainable": true, "dtype": "float32", "activation": "sigmoid"}, "name": "581", "inbound_nodes": [[["580", 0, 0, {}]]]}, {"class_name": "Multiply", "config": {"name": "582", "trainable": true, "dtype": "float32"}, "name": "582", "inbound_nodes": [[["580", 0, 0, {}], ["581", 0, 0, {}]]]}, {"class_name": "Conv2D", "config": {"name": "583", "trainable": true, "dtype": "float32", "filters": 1152, "kernel_size": [1, 1], "strides": [1, 1], "padding": "valid", "data_format": "channels_first", "dilation_rate": [1, 1], "groups": 1, "activation": "linear", "use_bias": true, "kernel_initializer": {"class_name": "Zeros", "config": {}}, "bias_initializer": {"class_name": "Zeros", "config": {}}, "kernel_regularizer": null, "bias_regularizer": null, "activity_regularizer": null, "kernel_constraint": null, "bias_constraint": null}, "name": "583", "inbound_nodes": [[["582", 0, 0, {}]]]}, {"class_name": "Activation", "config": {"name": "584", "trainable": true, "dtype": "float32", "activation": "sigmoid"}, "name": "584", "inbound_nodes": [[["583", 0, 0, {}]]]}, {"class_name": "Multiply", "config": {"name": "585", "trainable": true, "dtype": "float32"}, "name": "585", "inbound_nodes": [[["584", 0, 0, {}], ["578", 0, 0, {}]]]}, {"class_name": "Conv2D", "config": {"name": "763", "trainable": true, "dtype": "float32", "filters": 192, "kernel_size": [1, 1], "strides": [1, 1], "padding": "valid", "data_format": "channels_first", "dilation_rate": [1, 1], "groups": 1, "activation": "linear", "use_bias": true, "kernel_initializer": {"class_name": "Zeros", "config": {}}, "bias_initializer": {"class_name": "Zeros", "config": {}}, "kernel_regularizer": null, "bias_regularizer": null, "activity_regularizer": null, "kernel_constraint": null, "bias_constraint": null}, "name": "763", "inbound_nodes": [[["585", 0, 0, {}]]]}, {"class_name": "Add", "config": {"name": "588", "trainable": true, "dtype": "float32"}, "name": "588", "inbound_nodes": [[["763", 0, 0, {}], ["754", 0, 0, {}]]]}, {"class_name": "Conv2D", "config": {"name": "766", "trainable": true, "dtype": "float32", "filters": 1152, "kernel_size": [1, 1], "strides": [1, 1], "padding": "valid", "data_format": "channels_first", "dilation_rate": [1, 1], "groups": 1, "activation": "linear", "use_bias": true, "kernel_initializer": {"class_name": "Zeros", "config": {}}, "bias_initializer": {"class_name": "Zeros", "config": {}}, "kernel_regularizer": null, "bias_regularizer": null, "activity_regularizer": null, "kernel_constraint": null, "bias_constraint": null}, "name": "766", "inbound_nodes": [[["588", 0, 0, {}]]]}, {"class_name": "Activation", "config": {"name": "591", "trainable": true, "dtype": "float32", "activation": "sigmoid"}, "name": "591", "inbound_nodes": [[["766", 0, 0, {}]]]}, {"class_name": "Multiply", "config": {"name": "592", "trainable": true, "dtype": "float32"}, "name": "592", "inbound_nodes": [[["766", 0, 0, {}], ["591", 0, 0, {}]]]}, {"class_name": "ZeroPadding2D", "config": {"name": "769_pad", "trainable": true, "dtype": "float32", "padding": [[2, 2], [2, 2]], "data_format": "channels_first"}, "name": "769_pad", "inbound_nodes": [[["592", 0, 0, {}]]]}, {"class_name": "DepthwiseConv2D", "config": {"name": "769", "trainable": true, "dtype": "float32", "kernel_size": [5, 5], "strides": [1, 1], "padding": "valid", "data_format": "channels_first", "dilation_rate": [1, 1], "groups": 1, "activation": "linear", "use_bias": true, "bias_initializer": {"class_name": "Zeros", "config": {}}, "bias_regularizer": null, "activity_regularizer": null, "bias_constraint": null, "depth_multiplier": 1, "depthwise_initializer": {"class_name": "GlorotUniform", "config": {"seed": null}}, "depthwise_regularizer": null, "depthwise_constraint": null}, "name": "769", "inbound_nodes": [[["769_pad", 0, 0, {}]]]}, {"class_name": "Activation", "config": {"name": "595", "trainable": true, "dtype": "float32", "activation": "sigmoid"}, "name": "595", "inbound_nodes": [[["769", 0, 0, {}]]]}, {"class_name": "Multiply", "config": {"name": "596", "trainable": true, "dtype": "float32"}, "name": "596", "inbound_nodes": [[["769", 0, 0, {}], ["595", 0, 0, {}]]]}, {"class_name": "GlobalAveragePooling2D", "config": {"name": "597", "trainable": true, "dtype": "float32", "data_format": "channels_first", "keepdims": false}, "name": "597", "inbound_nodes": [[["596", 0, 0, {}]]]}, {"class_name": "Lambda", "config": {"name": "597_EXPAND1", "trainable": true, "dtype": "float32", "function": ["4wEAAAAAAAAAAAAAAAIAAAADAAAAUwAAAHMYAAAAZAFkAmwAbQF9AQEAfAFqAqADfAChAVMAKQNO\n6QAAAAApAdoFa2VyYXMpBNoKdGVuc29yZmxvd3ICAAAA2gdiYWNrZW5k2gtleHBhbmRfZGltcykC\n2gF4cgIAAACpAHIHAAAA+i9DOi9Vc2Vycy9jYXN0cm9mbS9BcHBEYXRhL1JvYW1pbmcvUHl0aG9u\nL1B5dGhvbjM5L3NpdGUtcGFja2FnZXMvb25ueDJrZXJhcy9wb29saW5nX2xheWVycy5wedoMdGFy\nZ2V0X2xheWVymAAAAHMEAAAAAAEMAQ==\n", null, null], "function_type": "lambda", "module": "onnx2keras.pooling_layers", "output_shape": null, "output_shape_type": "raw", "output_shape_module": null, "arguments": {}}, "name": "597_EXPAND1", "inbound_nodes": [[["597", 0, 0, {}]]]}, {"class_name": "Lambda", "config": {"name": "597_EXPAND2", "trainable": true, "dtype": "float32", "function": ["4wEAAAAAAAAAAAAAAAIAAAADAAAAUwAAAHMYAAAAZAFkAmwAbQF9AQEAfAFqAqADfAChAVMAKQNO\n6QAAAAApAdoFa2VyYXMpBNoKdGVuc29yZmxvd3ICAAAA2gdiYWNrZW5k2gtleHBhbmRfZGltcykC\n2gF4cgIAAACpAHIHAAAA+i9DOi9Vc2Vycy9jYXN0cm9mbS9BcHBEYXRhL1JvYW1pbmcvUHl0aG9u\nL1B5dGhvbjM5L3NpdGUtcGFja2FnZXMvb25ueDJrZXJhcy9wb29saW5nX2xheWVycy5wedoMdGFy\nZ2V0X2xheWVymAAAAHMEAAAAAAEMAQ==\n", null, null], "function_type": "lambda", "module": "onnx2keras.pooling_layers", "output_shape": null, "output_shape_type": "raw", "output_shape_module": null, "arguments": {}}, "name": "597_EXPAND2", "inbound_nodes": [[["597_EXPAND1", 0, 0, {}]]]}, {"class_name": "Conv2D", "config": {"name": "598", "trainable": true, "dtype": "float32", "filters": 48, "kernel_size": [1, 1], "strides": [1, 1], "padding": "valid", "data_format": "channels_first", "dilation_rate": [1, 1], "groups": 1, "activation": "linear", "use_bias": true, "kernel_initializer": {"class_name": "Zeros", "config": {}}, "bias_initializer": {"class_name": "Zeros", "config": {}}, "kernel_regularizer": null, "bias_regularizer": null, "activity_regularizer": null, "kernel_constraint": null, "bias_constraint": null}, "name": "598", "inbound_nodes": [[["597_EXPAND2", 0, 0, {}]]]}, {"class_name": "Activation", "config": {"name": "599", "trainable": true, "dtype": "float32", "activation": "sigmoid"}, "name": "599", "inbound_nodes": [[["598", 0, 0, {}]]]}, {"class_name": "Multiply", "config": {"name": "600", "trainable": true, "dtype": "float32"}, "name": "600", "inbound_nodes": [[["598", 0, 0, {}], ["599", 0, 0, {}]]]}, {"class_name": "Conv2D", "config": {"name": "601", "trainable": true, "dtype": "float32", "filters": 1152, "kernel_size": [1, 1], "strides": [1, 1], "padding": "valid", "data_format": "channels_first", "dilation_rate": [1, 1], "groups": 1, "activation": "linear", "use_bias": true, "kernel_initializer": {"class_name": "Zeros", "config": {}}, "bias_initializer": {"class_name": "Zeros", "config": {}}, "kernel_regularizer": null, "bias_regularizer": null, "activity_regularizer": null, "kernel_constraint": null, "bias_constraint": null}, "name": "601", "inbound_nodes": [[["600", 0, 0, {}]]]}, {"class_name": "Activation", "config": {"name": "602", "trainable": true, "dtype": "float32", "activation": "sigmoid"}, "name": "602", "inbound_nodes": [[["601", 0, 0, {}]]]}, {"class_name": "Multiply", "config": {"name": "603", "trainable": true, "dtype": "float32"}, "name": "603", "inbound_nodes": [[["602", 0, 0, {}], ["596", 0, 0, {}]]]}, {"class_name": "Conv2D", "config": {"name": "772", "trainable": true, "dtype": "float32", "filters": 192, "kernel_size": [1, 1], "strides": [1, 1], "padding": "valid", "data_format": "channels_first", "dilation_rate": [1, 1], "groups": 1, "activation": "linear", "use_bias": true, "kernel_initializer": {"class_name": "Zeros", "config": {}}, "bias_initializer": {"class_name": "Zeros", "config": {}}, "kernel_regularizer": null, "bias_regularizer": null, "activity_regularizer": null, "kernel_constraint": null, "bias_constraint": null}, "name": "772", "inbound_nodes": [[["603", 0, 0, {}]]]}, {"class_name": "Add", "config": {"name": "606", "trainable": true, "dtype": "float32"}, "name": "606", "inbound_nodes": [[["772", 0, 0, {}], ["588", 0, 0, {}]]]}, {"class_name": "Conv2D", "config": {"name": "775", "trainable": true, "dtype": "float32", "filters": 1152, "kernel_size": [1, 1], "strides": [1, 1], "padding": "valid", "data_format": "channels_first", "dilation_rate": [1, 1], "groups": 1, "activation": "linear", "use_bias": true, "kernel_initializer": {"class_name": "Zeros", "config": {}}, "bias_initializer": {"class_name": "Zeros", "config": {}}, "kernel_regularizer": null, "bias_regularizer": null, "activity_regularizer": null, "kernel_constraint": null, "bias_constraint": null}, "name": "775", "inbound_nodes": [[["606", 0, 0, {}]]]}, {"class_name": "Activation", "config": {"name": "609", "trainable": true, "dtype": "float32", "activation": "sigmoid"}, "name": "609", "inbound_nodes": [[["775", 0, 0, {}]]]}, {"class_name": "Multiply", "config": {"name": "610", "trainable": true, "dtype": "float32"}, "name": "610", "inbound_nodes": [[["775", 0, 0, {}], ["609", 0, 0, {}]]]}, {"class_name": "ZeroPadding2D", "config": {"name": "778_pad", "trainable": true, "dtype": "float32", "padding": [[2, 2], [2, 2]], "data_format": "channels_first"}, "name": "778_pad", "inbound_nodes": [[["610", 0, 0, {}]]]}, {"class_name": "DepthwiseConv2D", "config": {"name": "778", "trainable": true, "dtype": "float32", "kernel_size": [5, 5], "strides": [1, 1], "padding": "valid", "data_format": "channels_first", "dilation_rate": [1, 1], "groups": 1, "activation": "linear", "use_bias": true, "bias_initializer": {"class_name": "Zeros", "config": {}}, "bias_regularizer": null, "activity_regularizer": null, "bias_constraint": null, "depth_multiplier": 1, "depthwise_initializer": {"class_name": "GlorotUniform", "config": {"seed": null}}, "depthwise_regularizer": null, "depthwise_constraint": null}, "name": "778", "inbound_nodes": [[["778_pad", 0, 0, {}]]]}, {"class_name": "Activation", "config": {"name": "613", "trainable": true, "dtype": "float32", "activation": "sigmoid"}, "name": "613", "inbound_nodes": [[["778", 0, 0, {}]]]}, {"class_name": "Multiply", "config": {"name": "614", "trainable": true, "dtype": "float32"}, "name": "614", "inbound_nodes": [[["778", 0, 0, {}], ["613", 0, 0, {}]]]}, {"class_name": "GlobalAveragePooling2D", "config": {"name": "615", "trainable": true, "dtype": "float32", "data_format": "channels_first", "keepdims": false}, "name": "615", "inbound_nodes": [[["614", 0, 0, {}]]]}, {"class_name": "Lambda", "config": {"name": "615_EXPAND1", "trainable": true, "dtype": "float32", "function": ["4wEAAAAAAAAAAAAAAAIAAAADAAAAUwAAAHMYAAAAZAFkAmwAbQF9AQEAfAFqAqADfAChAVMAKQNO\n6QAAAAApAdoFa2VyYXMpBNoKdGVuc29yZmxvd3ICAAAA2gdiYWNrZW5k2gtleHBhbmRfZGltcykC\n2gF4cgIAAACpAHIHAAAA+i9DOi9Vc2Vycy9jYXN0cm9mbS9BcHBEYXRhL1JvYW1pbmcvUHl0aG9u\nL1B5dGhvbjM5L3NpdGUtcGFja2FnZXMvb25ueDJrZXJhcy9wb29saW5nX2xheWVycy5wedoMdGFy\nZ2V0X2xheWVymAAAAHMEAAAAAAEMAQ==\n", null, null], "function_type": "lambda", "module": "onnx2keras.pooling_layers", "output_shape": null, "output_shape_type": "raw", "output_shape_module": null, "arguments": {}}, "name": "615_EXPAND1", "inbound_nodes": [[["615", 0, 0, {}]]]}, {"class_name": "Lambda", "config": {"name": "615_EXPAND2", "trainable": true, "dtype": "float32", "function": ["4wEAAAAAAAAAAAAAAAIAAAADAAAAUwAAAHMYAAAAZAFkAmwAbQF9AQEAfAFqAqADfAChAVMAKQNO\n6QAAAAApAdoFa2VyYXMpBNoKdGVuc29yZmxvd3ICAAAA2gdiYWNrZW5k2gtleHBhbmRfZGltcykC\n2gF4cgIAAACpAHIHAAAA+i9DOi9Vc2Vycy9jYXN0cm9mbS9BcHBEYXRhL1JvYW1pbmcvUHl0aG9u\nL1B5dGhvbjM5L3NpdGUtcGFja2FnZXMvb25ueDJrZXJhcy9wb29saW5nX2xheWVycy5wedoMdGFy\nZ2V0X2xheWVymAAAAHMEAAAAAAEMAQ==\n", null, null], "function_type": "lambda", "module": "onnx2keras.pooling_layers", "output_shape": null, "output_shape_type": "raw", "output_shape_module": null, "arguments": {}}, "name": "615_EXPAND2", "inbound_nodes": [[["615_EXPAND1", 0, 0, {}]]]}, {"class_name": "Conv2D", "config": {"name": "616", "trainable": true, "dtype": "float32", "filters": 48, "kernel_size": [1, 1], "strides": [1, 1], "padding": "valid", "data_format": "channels_first", "dilation_rate": [1, 1], "groups": 1, "activation": "linear", "use_bias": true, "kernel_initializer": {"class_name": "Zeros", "config": {}}, "bias_initializer": {"class_name": "Zeros", "config": {}}, "kernel_regularizer": null, "bias_regularizer": null, "activity_regularizer": null, "kernel_constraint": null, "bias_constraint": null}, "name": "616", "inbound_nodes": [[["615_EXPAND2", 0, 0, {}]]]}, {"class_name": "Activation", "config": {"name": "617", "trainable": true, "dtype": "float32", "activation": "sigmoid"}, "name": "617", "inbound_nodes": [[["616", 0, 0, {}]]]}, {"class_name": "Multiply", "config": {"name": "618", "trainable": true, "dtype": "float32"}, "name": "618", "inbound_nodes": [[["616", 0, 0, {}], ["617", 0, 0, {}]]]}, {"class_name": "Conv2D", "config": {"name": "619", "trainable": true, "dtype": "float32", "filters": 1152, "kernel_size": [1, 1], "strides": [1, 1], "padding": "valid", "data_format": "channels_first", "dilation_rate": [1, 1], "groups": 1, "activation": "linear", "use_bias": true, "kernel_initializer": {"class_name": "Zeros", "config": {}}, "bias_initializer": {"class_name": "Zeros", "config": {}}, "kernel_regularizer": null, "bias_regularizer": null, "activity_regularizer": null, "kernel_constraint": null, "bias_constraint": null}, "name": "619", "inbound_nodes": [[["618", 0, 0, {}]]]}, {"class_name": "Activation", "config": {"name": "620", "trainable": true, "dtype": "float32", "activation": "sigmoid"}, "name": "620", "inbound_nodes": [[["619", 0, 0, {}]]]}, {"class_name": "Multiply", "config": {"name": "621", "trainable": true, "dtype": "float32"}, "name": "621", "inbound_nodes": [[["620", 0, 0, {}], ["614", 0, 0, {}]]]}, {"class_name": "Conv2D", "config": {"name": "781", "trainable": true, "dtype": "float32", "filters": 192, "kernel_size": [1, 1], "strides": [1, 1], "padding": "valid", "data_format": "channels_first", "dilation_rate": [1, 1], "groups": 1, "activation": "linear", "use_bias": true, "kernel_initializer": {"class_name": "Zeros", "config": {}}, "bias_initializer": {"class_name": "Zeros", "config": {}}, "kernel_regularizer": null, "bias_regularizer": null, "activity_regularizer": null, "kernel_constraint": null, "bias_constraint": null}, "name": "781", "inbound_nodes": [[["621", 0, 0, {}]]]}, {"class_name": "Add", "config": {"name": "624", "trainable": true, "dtype": "float32"}, "name": "624", "inbound_nodes": [[["781", 0, 0, {}], ["606", 0, 0, {}]]]}, {"class_name": "Conv2D", "config": {"name": "784", "trainable": true, "dtype": "float32", "filters": 1152, "kernel_size": [1, 1], "strides": [1, 1], "padding": "valid", "data_format": "channels_first", "dilation_rate": [1, 1], "groups": 1, "activation": "linear", "use_bias": true, "kernel_initializer": {"class_name": "Zeros", "config": {}}, "bias_initializer": {"class_name": "Zeros", "config": {}}, "kernel_regularizer": null, "bias_regularizer": null, "activity_regularizer": null, "kernel_constraint": null, "bias_constraint": null}, "name": "784", "inbound_nodes": [[["624", 0, 0, {}]]]}, {"class_name": "Activation", "config": {"name": "627", "trainable": true, "dtype": "float32", "activation": "sigmoid"}, "name": "627", "inbound_nodes": [[["784", 0, 0, {}]]]}, {"class_name": "Multiply", "config": {"name": "628", "trainable": true, "dtype": "float32"}, "name": "628", "inbound_nodes": [[["784", 0, 0, {}], ["627", 0, 0, {}]]]}, {"class_name": "ZeroPadding2D", "config": {"name": "787_pad", "trainable": true, "dtype": "float32", "padding": [[1, 1], [1, 1]], "data_format": "channels_first"}, "name": "787_pad", "inbound_nodes": [[["628", 0, 0, {}]]]}, {"class_name": "DepthwiseConv2D", "config": {"name": "787", "trainable": true, "dtype": "float32", "kernel_size": [3, 3], "strides": [1, 1], "padding": "valid", "data_format": "channels_first", "dilation_rate": [1, 1], "groups": 1, "activation": "linear", "use_bias": true, "bias_initializer": {"class_name": "Zeros", "config": {}}, "bias_regularizer": null, "activity_regularizer": null, "bias_constraint": null, "depth_multiplier": 1, "depthwise_initializer": {"class_name": "GlorotUniform", "config": {"seed": null}}, "depthwise_regularizer": null, "depthwise_constraint": null}, "name": "787", "inbound_nodes": [[["787_pad", 0, 0, {}]]]}, {"class_name": "Activation", "config": {"name": "631", "trainable": true, "dtype": "float32", "activation": "sigmoid"}, "name": "631", "inbound_nodes": [[["787", 0, 0, {}]]]}, {"class_name": "Multiply", "config": {"name": "632", "trainable": true, "dtype": "float32"}, "name": "632", "inbound_nodes": [[["787", 0, 0, {}], ["631", 0, 0, {}]]]}, {"class_name": "GlobalAveragePooling2D", "config": {"name": "633", "trainable": true, "dtype": "float32", "data_format": "channels_first", "keepdims": false}, "name": "633", "inbound_nodes": [[["632", 0, 0, {}]]]}, {"class_name": "Lambda", "config": {"name": "633_EXPAND1", "trainable": true, "dtype": "float32", "function": ["4wEAAAAAAAAAAAAAAAIAAAADAAAAUwAAAHMYAAAAZAFkAmwAbQF9AQEAfAFqAqADfAChAVMAKQNO\n6QAAAAApAdoFa2VyYXMpBNoKdGVuc29yZmxvd3ICAAAA2gdiYWNrZW5k2gtleHBhbmRfZGltcykC\n2gF4cgIAAACpAHIHAAAA+i9DOi9Vc2Vycy9jYXN0cm9mbS9BcHBEYXRhL1JvYW1pbmcvUHl0aG9u\nL1B5dGhvbjM5L3NpdGUtcGFja2FnZXMvb25ueDJrZXJhcy9wb29saW5nX2xheWVycy5wedoMdGFy\nZ2V0X2xheWVymAAAAHMEAAAAAAEMAQ==\n", null, null], "function_type": "lambda", "module": "onnx2keras.pooling_layers", "output_shape": null, "output_shape_type": "raw", "output_shape_module": null, "arguments": {}}, "name": "633_EXPAND1", "inbound_nodes": [[["633", 0, 0, {}]]]}, {"class_name": "Lambda", "config": {"name": "633_EXPAND2", "trainable": true, "dtype": "float32", "function": ["4wEAAAAAAAAAAAAAAAIAAAADAAAAUwAAAHMYAAAAZAFkAmwAbQF9AQEAfAFqAqADfAChAVMAKQNO\n6QAAAAApAdoFa2VyYXMpBNoKdGVuc29yZmxvd3ICAAAA2gdiYWNrZW5k2gtleHBhbmRfZGltcykC\n2gF4cgIAAACpAHIHAAAA+i9DOi9Vc2Vycy9jYXN0cm9mbS9BcHBEYXRhL1JvYW1pbmcvUHl0aG9u\nL1B5dGhvbjM5L3NpdGUtcGFja2FnZXMvb25ueDJrZXJhcy9wb29saW5nX2xheWVycy5wedoMdGFy\nZ2V0X2xheWVymAAAAHMEAAAAAAEMAQ==\n", null, null], "function_type": "lambda", "module": "onnx2keras.pooling_layers", "output_shape": null, "output_shape_type": "raw", "output_shape_module": null, "arguments": {}}, "name": "633_EXPAND2", "inbound_nodes": [[["633_EXPAND1", 0, 0, {}]]]}, {"class_name": "Conv2D", "config": {"name": "634", "trainable": true, "dtype": "float32", "filters": 48, "kernel_size": [1, 1], "strides": [1, 1], "padding": "valid", "data_format": "channels_first", "dilation_rate": [1, 1], "groups": 1, "activation": "linear", "use_bias": true, "kernel_initializer": {"class_name": "Zeros", "config": {}}, "bias_initializer": {"class_name": "Zeros", "config": {}}, "kernel_regularizer": null, "bias_regularizer": null, "activity_regularizer": null, "kernel_constraint": null, "bias_constraint": null}, "name": "634", "inbound_nodes": [[["633_EXPAND2", 0, 0, {}]]]}, {"class_name": "Activation", "config": {"name": "635", "trainable": true, "dtype": "float32", "activation": "sigmoid"}, "name": "635", "inbound_nodes": [[["634", 0, 0, {}]]]}, {"class_name": "Multiply", "config": {"name": "636", "trainable": true, "dtype": "float32"}, "name": "636", "inbound_nodes": [[["634", 0, 0, {}], ["635", 0, 0, {}]]]}, {"class_name": "Conv2D", "config": {"name": "637", "trainable": true, "dtype": "float32", "filters": 1152, "kernel_size": [1, 1], "strides": [1, 1], "padding": "valid", "data_format": "channels_first", "dilation_rate": [1, 1], "groups": 1, "activation": "linear", "use_bias": true, "kernel_initializer": {"class_name": "Zeros", "config": {}}, "bias_initializer": {"class_name": "Zeros", "config": {}}, "kernel_regularizer": null, "bias_regularizer": null, "activity_regularizer": null, "kernel_constraint": null, "bias_constraint": null}, "name": "637", "inbound_nodes": [[["636", 0, 0, {}]]]}, {"class_name": "Activation", "config": {"name": "638", "trainable": true, "dtype": "float32", "activation": "sigmoid"}, "name": "638", "inbound_nodes": [[["637", 0, 0, {}]]]}, {"class_name": "Multiply", "config": {"name": "639", "trainable": true, "dtype": "float32"}, "name": "639", "inbound_nodes": [[["638", 0, 0, {}], ["632", 0, 0, {}]]]}, {"class_name": "Conv2D", "config": {"name": "790", "trainable": true, "dtype": "float32", "filters": 320, "kernel_size": [1, 1], "strides": [1, 1], "padding": "valid", "data_format": "channels_first", "dilation_rate": [1, 1], "groups": 1, "activation": "linear", "use_bias": true, "kernel_initializer": {"class_name": "Zeros", "config": {}}, "bias_initializer": {"class_name": "Zeros", "config": {}}, "kernel_regularizer": null, "bias_regularizer": null, "activity_regularizer": null, "kernel_constraint": null, "bias_constraint": null}, "name": "790", "inbound_nodes": [[["639", 0, 0, {}]]]}, {"class_name": "Conv2D", "config": {"name": "793", "trainable": true, "dtype": "float32", "filters": 1280, "kernel_size": [1, 1], "strides": [1, 1], "padding": "valid", "data_format": "channels_first", "dilation_rate": [1, 1], "groups": 1, "activation": "linear", "use_bias": true, "kernel_initializer": {"class_name": "Zeros", "config": {}}, "bias_initializer": {"class_name": "Zeros", "config": {}}, "kernel_regularizer": null, "bias_regularizer": null, "activity_regularizer": null, "kernel_constraint": null, "bias_constraint": null}, "name": "793", "inbound_nodes": [[["790", 0, 0, {}]]]}, {"class_name": "Activation", "config": {"name": "644", "trainable": true, "dtype": "float32", "activation": "sigmoid"}, "name": "644", "inbound_nodes": [[["793", 0, 0, {}]]]}, {"class_name": "Multiply", "config": {"name": "645", "trainable": true, "dtype": "float32"}, "name": "645", "inbound_nodes": [[["793", 0, 0, {}], ["644", 0, 0, {}]]]}, {"class_name": "GlobalAveragePooling2D", "config": {"name": "646", "trainable": true, "dtype": "float32", "data_format": "channels_first", "keepdims": false}, "name": "646", "inbound_nodes": [[["645", 0, 0, {}]]]}, {"class_name": "Lambda", "config": {"name": "646_EXPAND1", "trainable": true, "dtype": "float32", "function": ["4wEAAAAAAAAAAAAAAAIAAAADAAAAUwAAAHMYAAAAZAFkAmwAbQF9AQEAfAFqAqADfAChAVMAKQNO\n6QAAAAApAdoFa2VyYXMpBNoKdGVuc29yZmxvd3ICAAAA2gdiYWNrZW5k2gtleHBhbmRfZGltcykC\n2gF4cgIAAACpAHIHAAAA+i9DOi9Vc2Vycy9jYXN0cm9mbS9BcHBEYXRhL1JvYW1pbmcvUHl0aG9u\nL1B5dGhvbjM5L3NpdGUtcGFja2FnZXMvb25ueDJrZXJhcy9wb29saW5nX2xheWVycy5wedoMdGFy\nZ2V0X2xheWVymAAAAHMEAAAAAAEMAQ==\n", null, null], "function_type": "lambda", "module": "onnx2keras.pooling_layers", "output_shape": null, "output_shape_type": "raw", "output_shape_module": null, "arguments": {}}, "name": "646_EXPAND1", "inbound_nodes": [[["646", 0, 0, {}]]]}, {"class_name": "Lambda", "config": {"name": "646_EXPAND2", "trainable": true, "dtype": "float32", "function": ["4wEAAAAAAAAAAAAAAAIAAAADAAAAUwAAAHMYAAAAZAFkAmwAbQF9AQEAfAFqAqADfAChAVMAKQNO\n6QAAAAApAdoFa2VyYXMpBNoKdGVuc29yZmxvd3ICAAAA2gdiYWNrZW5k2gtleHBhbmRfZGltcykC\n2gF4cgIAAACpAHIHAAAA+i9DOi9Vc2Vycy9jYXN0cm9mbS9BcHBEYXRhL1JvYW1pbmcvUHl0aG9u\nL1B5dGhvbjM5L3NpdGUtcGFja2FnZXMvb25ueDJrZXJhcy9wb29saW5nX2xheWVycy5wedoMdGFy\nZ2V0X2xheWVymAAAAHMEAAAAAAEMAQ==\n", null, null], "function_type": "lambda", "module": "onnx2keras.pooling_layers", "output_shape": null, "output_shape_type": "raw", "output_shape_module": null, "arguments": {}}, "name": "646_EXPAND2", "inbound_nodes": [[["646_EXPAND1", 0, 0, {}]]]}, {"class_name": "Reshape", "config": {"name": "647", "trainable": true, "dtype": "float32", "target_shape": [-1]}, "name": "647", "inbound_nodes": [[["646_EXPAND2", 0, 0, {}]]]}, {"class_name": "Dense", "config": {"name": "output_0", "trainable": true, "dtype": "float32", "units": 7, "activation": "linear", "use_bias": true, "kernel_initializer": {"class_name": "Zeros", "config": {}}, "bias_initializer": {"class_name": "Zeros", "config": {}}, "kernel_regularizer": null, "bias_regularizer": null, "activity_regularizer": null, "kernel_constraint": null, "bias_constraint": null}, "name": "output_0", "inbound_nodes": [[["647", 0, 0, {}]]]}], "input_layers": [["input_0", 0, 0]], "output_layers": [["output_0", 0, 0]]}}}, "weightsManifest": [{"paths": ["group1-shard1of4.bin", "group1-shard2of4.bin", "group1-shard3of4.bin", "group1-shard4of4.bin"], "weights": [{"name": "370/kernel", "shape": [1, 1, 32, 8], "dtype": "float32"}, {"name": "370/bias", "shape": [8], "dtype": "float32"}, {"name": "373/kernel", "shape": [1, 1, 8, 32], "dtype": "float32"}, {"name": "373/bias", "shape": [32], "dtype": "float32"}, {"name": "387/kernel", "shape": [1, 1, 96, 4], "dtype": "float32"}, {"name": "387/bias", "shape": [4], "dtype": "float32"}, {"name": "390/kernel", "shape": [1, 1, 4, 96], "dtype": "float32"}, {"name": "390/bias", "shape": [96], "dtype": "float32"}, {"name": "404/kernel", "shape": [1, 1, 144, 6], "dtype": "float32"}, {"name": "404/bias", "shape": [6], "dtype": "float32"}, {"name": "407/kernel", "shape": [1, 1, 6, 144], "dtype": "float32"}, {"name": "407/bias", "shape": [144], "dtype": "float32"}, {"name": "422/kernel", "shape": [1, 1, 144, 6], "dtype": "float32"}, {"name": "422/bias", "shape": [6], "dtype": "float32"}, {"name": "425/kernel", "shape": [1, 1, 6, 144], "dtype": "float32"}, {"name": "425/bias", "shape": [144], "dtype": "float32"}, {"name": "439/kernel", "shape": [1, 1, 240, 10], "dtype": "float32"}, {"name": "439/bias", "shape": [10], "dtype": "float32"}, {"name": "442/kernel", "shape": [1, 1, 10, 240], "dtype": "float32"}, {"name": "442/bias", "shape": [240], "dtype": "float32"}, {"name": "457/kernel", "shape": [1, 1, 240, 10], "dtype": "float32"}, {"name": "457/bias", "shape": [10], "dtype": "float32"}, {"name": "460/kernel", "shape": [1, 1, 10, 240], "dtype": "float32"}, {"name": "460/bias", "shape": [240], "dtype": "float32"}, {"name": "474/kernel", "shape": [1, 1, 480, 20], "dtype": "float32"}, {"name": "474/bias", "shape": [20], "dtype": "float32"}, {"name": "477/kernel", "shape": [1, 1, 20, 480], "dtype": "float32"}, {"name": "477/bias", "shape": [480], "dtype": "float32"}, {"name": "492/kernel", "shape": [1, 1, 480, 20], "dtype": "float32"}, {"name": "492/bias", "shape": [20], "dtype": "float32"}, {"name": "495/kernel", "shape": [1, 1, 20, 480], "dtype": "float32"}, {"name": "495/bias", "shape": [480], "dtype": "float32"}, {"name": "510/kernel", "shape": [1, 1, 480, 20], "dtype": "float32"}, {"name": "510/bias", "shape": [20], "dtype": "float32"}, {"name": "513/kernel", "shape": [1, 1, 20, 480], "dtype": "float32"}, {"name": "513/bias", "shape": [480], "dtype": "float32"}, {"name": "527/kernel", "shape": [1, 1, 672, 28], "dtype": "float32"}, {"name": "527/bias", "shape": [28], "dtype": "float32"}, {"name": "530/kernel", "shape": [1, 1, 28, 672], "dtype": "float32"}, {"name": "530/bias", "shape": [672], "dtype": "float32"}, {"name": "545/kernel", "shape": [1, 1, 672, 28], "dtype": "float32"}, {"name": "545/bias", "shape": [28], "dtype": "float32"}, {"name": "548/kernel", "shape": [1, 1, 28, 672], "dtype": "float32"}, {"name": "548/bias", "shape": [672], "dtype": "float32"}, {"name": "563/kernel", "shape": [1, 1, 672, 28], "dtype": "float32"}, {"name": "563/bias", "shape": [28], "dtype": "float32"}, {"name": "566/kernel", "shape": [1, 1, 28, 672], "dtype": "float32"}, {"name": "566/bias", "shape": [672], "dtype": "float32"}, {"name": "580/kernel", "shape": [1, 1, 1152, 48], "dtype": "float32"}, {"name": "580/bias", "shape": [48], "dtype": "float32"}, {"name": "583/kernel", "shape": [1, 1, 48, 1152], "dtype": "float32"}, {"name": "583/bias", "shape": [1152], "dtype": "float32"}, {"name": "598/kernel", "shape": [1, 1, 1152, 48], "dtype": "float32"}, {"name": "598/bias", "shape": [48], "dtype": "float32"}, {"name": "601/kernel", "shape": [1, 1, 48, 1152], "dtype": "float32"}, {"name": "601/bias", "shape": [1152], "dtype": "float32"}, {"name": "616/kernel", "shape": [1, 1, 1152, 48], "dtype": "float32"}, {"name": "616/bias", "shape": [48], "dtype": "float32"}, {"name": "619/kernel", "shape": [1, 1, 48, 1152], "dtype": "float32"}, {"name": "619/bias", "shape": [1152], "dtype": "float32"}, {"name": "634/kernel", "shape": [1, 1, 1152, 48], "dtype": "float32"}, {"name": "634/bias", "shape": [48], "dtype": "float32"}, {"name": "637/kernel", "shape": [1, 1, 48, 1152], "dtype": "float32"}, {"name": "637/bias", "shape": [1152], "dtype": "float32"}, {"name": "649/kernel", "shape": [3, 3, 3, 32], "dtype": "float32"}, {"name": "649/bias", "shape": [32], "dtype": "float32"}, {"name": "652/depthwise_kernel", "shape": [3, 3, 32, 1], "dtype": "float32"}, {"name": "652/bias", "shape": [32], "dtype": "float32"}, {"name": "655/kernel", "shape": [1, 1, 32, 16], "dtype": "float32"}, {"name": "655/bias", "shape": [16], "dtype": "float32"}, {"name": "658/kernel", "shape": [1, 1, 16, 96], "dtype": "float32"}, {"name": "658/bias", "shape": [96], "dtype": "float32"}, {"name": "661/depthwise_kernel", "shape": [3, 3, 96, 1], "dtype": "float32"}, {"name": "661/bias", "shape": [96], "dtype": "float32"}, {"name": "664/kernel", "shape": [1, 1, 96, 24], "dtype": "float32"}, {"name": "664/bias", "shape": [24], "dtype": "float32"}, {"name": "667/kernel", "shape": [1, 1, 24, 144], "dtype": "float32"}, {"name": "667/bias", "shape": [144], "dtype": "float32"}, {"name": "670/depthwise_kernel", "shape": [3, 3, 144, 1], "dtype": "float32"}, {"name": "670/bias", "shape": [144], "dtype": "float32"}, {"name": "673/kernel", "shape": [1, 1, 144, 24], "dtype": "float32"}, {"name": "673/bias", "shape": [24], "dtype": "float32"}, {"name": "676/kernel", "shape": [1, 1, 24, 144], "dtype": "float32"}, {"name": "676/bias", "shape": [144], "dtype": "float32"}, {"name": "679/depthwise_kernel", "shape": [5, 5, 144, 1], "dtype": "float32"}, {"name": "679/bias", "shape": [144], "dtype": "float32"}, {"name": "682/kernel", "shape": [1, 1, 144, 40], "dtype": "float32"}, {"name": "682/bias", "shape": [40], "dtype": "float32"}, {"name": "685/kernel", "shape": [1, 1, 40, 240], "dtype": "float32"}, {"name": "685/bias", "shape": [240], "dtype": "float32"}, {"name": "688/depthwise_kernel", "shape": [5, 5, 240, 1], "dtype": "float32"}, {"name": "688/bias", "shape": [240], "dtype": "float32"}, {"name": "691/kernel", "shape": [1, 1, 240, 40], "dtype": "float32"}, {"name": "691/bias", "shape": [40], "dtype": "float32"}, {"name": "694/kernel", "shape": [1, 1, 40, 240], "dtype": "float32"}, {"name": "694/bias", "shape": [240], "dtype": "float32"}, {"name": "697/depthwise_kernel", "shape": [3, 3, 240, 1], "dtype": "float32"}, {"name": "697/bias", "shape": [240], "dtype": "float32"}, {"name": "700/kernel", "shape": [1, 1, 240, 80], "dtype": "float32"}, {"name": "700/bias", "shape": [80], "dtype": "float32"}, {"name": "703/kernel", "shape": [1, 1, 80, 480], "dtype": "float32"}, {"name": "703/bias", "shape": [480], "dtype": "float32"}, {"name": "706/depthwise_kernel", "shape": [3, 3, 480, 1], "dtype": "float32"}, {"name": "706/bias", "shape": [480], "dtype": "float32"}, {"name": "709/kernel", "shape": [1, 1, 480, 80], "dtype": "float32"}, {"name": "709/bias", "shape": [80], "dtype": "float32"}, {"name": "712/kernel", "shape": [1, 1, 80, 480], "dtype": "float32"}, {"name": "712/bias", "shape": [480], "dtype": "float32"}, {"name": "715/depthwise_kernel", "shape": [3, 3, 480, 1], "dtype": "float32"}, {"name": "715/bias", "shape": [480], "dtype": "float32"}, {"name": "718/kernel", "shape": [1, 1, 480, 80], "dtype": "float32"}, {"name": "718/bias", "shape": [80], "dtype": "float32"}, {"name": "721/kernel", "shape": [1, 1, 80, 480], "dtype": "float32"}, {"name": "721/bias", "shape": [480], "dtype": "float32"}, {"name": "724/depthwise_kernel", "shape": [5, 5, 480, 1], "dtype": "float32"}, {"name": "724/bias", "shape": [480], "dtype": "float32"}, {"name": "727/kernel", "shape": [1, 1, 480, 112], "dtype": "float32"}, {"name": "727/bias", "shape": [112], "dtype": "float32"}, {"name": "730/kernel", "shape": [1, 1, 112, 672], "dtype": "float32"}, {"name": "730/bias", "shape": [672], "dtype": "float32"}, {"name": "733/depthwise_kernel", "shape": [5, 5, 672, 1], "dtype": "float32"}, {"name": "733/bias", "shape": [672], "dtype": "float32"}, {"name": "736/kernel", "shape": [1, 1, 672, 112], "dtype": "float32"}, {"name": "736/bias", "shape": [112], "dtype": "float32"}, {"name": "739/kernel", "shape": [1, 1, 112, 672], "dtype": "float32"}, {"name": "739/bias", "shape": [672], "dtype": "float32"}, {"name": "742/depthwise_kernel", "shape": [5, 5, 672, 1], "dtype": "float32"}, {"name": "742/bias", "shape": [672], "dtype": "float32"}, {"name": "745/kernel", "shape": [1, 1, 672, 112], "dtype": "float32"}, {"name": "745/bias", "shape": [112], "dtype": "float32"}, {"name": "748/kernel", "shape": [1, 1, 112, 672], "dtype": "float32"}, {"name": "748/bias", "shape": [672], "dtype": "float32"}, {"name": "751/depthwise_kernel", "shape": [5, 5, 672, 1], "dtype": "float32"}, {"name": "751/bias", "shape": [672], "dtype": "float32"}, {"name": "754/kernel", "shape": [1, 1, 672, 192], "dtype": "float32"}, {"name": "754/bias", "shape": [192], "dtype": "float32"}, {"name": "757/kernel", "shape": [1, 1, 192, 1152], "dtype": "float32"}, {"name": "757/bias", "shape": [1152], "dtype": "float32"}, {"name": "760/depthwise_kernel", "shape": [5, 5, 1152, 1], "dtype": "float32"}, {"name": "760/bias", "shape": [1152], "dtype": "float32"}, {"name": "763/kernel", "shape": [1, 1, 1152, 192], "dtype": "float32"}, {"name": "763/bias", "shape": [192], "dtype": "float32"}, {"name": "766/kernel", "shape": [1, 1, 192, 1152], "dtype": "float32"}, {"name": "766/bias", "shape": [1152], "dtype": "float32"}, {"name": "769/depthwise_kernel", "shape": [5, 5, 1152, 1], "dtype": "float32"}, {"name": "769/bias", "shape": [1152], "dtype": "float32"}, {"name": "772/kernel", "shape": [1, 1, 1152, 192], "dtype": "float32"}, {"name": "772/bias", "shape": [192], "dtype": "float32"}, {"name": "775/kernel", "shape": [1, 1, 192, 1152], "dtype": "float32"}, {"name": "775/bias", "shape": [1152], "dtype": "float32"}, {"name": "778/depthwise_kernel", "shape": [5, 5, 1152, 1], "dtype": "float32"}, {"name": "778/bias", "shape": [1152], "dtype": "float32"}, {"name": "781/kernel", "shape": [1, 1, 1152, 192], "dtype": "float32"}, {"name": "781/bias", "shape": [192], "dtype": "float32"}, {"name": "784/kernel", "shape": [1, 1, 192, 1152], "dtype": "float32"}, {"name": "784/bias", "shape": [1152], "dtype": "float32"}, {"name": "787/depthwise_kernel", "shape": [3, 3, 1152, 1], "dtype": "float32"}, {"name": "787/bias", "shape": [1152], "dtype": "float32"}, {"name": "790/kernel", "shape": [1, 1, 1152, 320], "dtype": "float32"}, {"name": "790/bias", "shape": [320], "dtype": "float32"}, {"name": "793/kernel", "shape": [1, 1, 320, 1280], "dtype": "float32"}, {"name": "793/bias", "shape": [1280], "dtype": "float32"}, {"name": "output_0/kernel", "shape": [1280, 7], "dtype": "float32"}, {"name": "output_0/bias", "shape": [7], "dtype": "float32"}]}]}